data/lora/checkpoint-1000/adapter_model.safetensors (safetensors, 297928 bytes, 24 tensors)

base_model.model.transformer.h.0.attn.c_attn.lora_A.weight f4 [2, 768]
0	0x3d40455f	0.046941157
1	0xbd2b2ee0	-0.04179275
2	0x3d1847ba	0.03717778
3	0xbcb665e4	-0.022265382
4	0x3d5330c0	0.051560163
5	0xb87395db	-5.807528e-05
6	0x3d430022	0.04760755
7	0x3c604f91	0.013690845
8	0x3cce1a3b	0.025158992
9	0xbce7e0a8	-0.028305367
10	0xbd2407d0	-0.040046513
11	0x3d8820eb	0.066469036
12	0xbcc1aba4	-0.023641415
13	0xbced085b	-0.028934648
14	0xbd428d8c	-0.04749827
15	0x3d7a394f	0.06108981
16	0x3dcfb5c5	0.10142092
17	0x3c8e695e	0.017384227
18	0x3ccfebaa	0.025380928
19	0xbabd5bf0	-0.0014446955
20	0x3d849ce7	0.06475239
21	0xbc98de20	-0.018660605
22	0x3d4ce46c	0.050022528
23	0xbcbe64aa	-0.02324136
24	0xbd4a2496	-0.049351297
25	0xbd685896	-0.056725107
26	0x3d15ebe1	0.036601905
27	0xbd63658a	-0.055516757
28	0x3c962c98	0.01833181
29	0x3c93de16	0.018050235
30	0x3d337d74	0.043820813
31	0x3db230a5	0.087006845
32	0xbca31e78	-0.01991199
33	0xbd700437	-0.05859777
34	0xbc719d5a	-0.014746988
35	0x3d767f39	0.060179923
36	0x3c510496	0.012757441
37	0xbd226b4f	-0.03965312
38	0x3db682ab	0.08911642
39	0x3d8b3524	0.06797245
40	0xbe219ac8	-0.157817
41	0x3d8b0804	0.06788638
42	0xbadb0837	-0.0016710822
43	0x3d1ad9e1	0.03780544
44	0xbd5d1cdc	-0.0539826
45	0x3ce62423	0.028093403
46	0xbd1762d4	-0.036959484
47	0x3c896095	0.016769687
48	0x3d67f917	0.056634035
49	0xbd0d041a	-0.03442774
50	0x3ca877f9	0.02056502
51	0x3d4b7674	0.049673513
52	0xbce1248e	-0.027483251
53	0xbe182007	-0.14855967
54	0x3d3b7fff	0.045776363
55	0xbd931445	-0.071816005
56	0x3d3bfee7	0.04589739
57	0xbd5844bd	-0.05279993
58	0x3d1f01b7	0.038819995
59	0x3dede0d4	0.11615148
60	0xbc99f103	-0.018791681
61	0x3da0b4df	0.078469984
62	0x3c8d1805	0.017223367
63	0xbd500b05	-0.05079176
64	0x3c5f5716	0.013631603
65	0x3c6ea635	0.014565994
66	0x3d4f4b40	0.050608873
67	0x3d5e8ae2	0.054331668
68	0xbc5a8b01	-0.013338805
69	0x3c7241c0	0.014786184
70	0xbda22599	-0.079173274
71	0x3d0301b7	0.031984057
72	0xbceceb43	-0.028920775
73	0x3d22c435	0.0397379
74	0x3d9358ce	0.071946725
75	0x3c0ad3df	0.008473366
76	0x3d861a13	0.06547942
77	0x3cfea4d8	0.031084463
78	0x3dd921ef	0.106021754
79	0x3bcd621b	0.0062677986
80	0xbdcfa942	-0.10139705
81	0x3c19a89a	0.009378577
82	0xbdd342a9	-0.10315449
83	0x3d4b60d5	0.049652893
84	0x3c429499	0.011876249
85	0x3c97c2ee	0.018525567
86	0x3c37e065	0.011222933
87	0x3ba551fb	0.005045173
88	0xbd12a9ca	-0.035806455
89	0xbdab26c0	-0.08357
90	0x3d1281b9	0.035768244
91	0xbc5436c3	-0.012952509
92	0xbcee7889	-0.02911021
93	0xba187d41	-0.0005817004
94	0xbd6ac166	-0.057313345
95	0xbdf71984	-0.120654136
96	0xbc5811a8	-0.013187803
97	0xbc4dc09f	-0.0125581315
98	0xbc91039d	-0.017701918
99	0x3c805f0f	0.015670327
100	0xbd865ba6	-0.06560449
101	0xbd51e01e	-0.051239125
102	0x3c8df60d	0.01732924
103	0x3da67869	0.08128435
104	0xbd0e17dd	-0.034690727
105	0xbd0182a0	-0.031618714
106	0xbd14ad10	-0.036297858
107	0x3c73ce5a	0.014880741
108	0xbcd38a4c	-0.025822781
109	0xbd833703	-0.06406977
110	0xbce3ad30	-0.027792543
111	0x3d8b82e0	0.06812072
112	0x3ce39552	0.027781162
113	0x3da0b992	0.07847895
114	0xbd87599f	-0.06608891
115	0x3da1699c	0.078814715
116	0x3d431446	0.047626756
117	0xbe01a3b3	-0.12660103
118	0xbd43af94	-0.047774866
119	0xbddd6303	-0.108099006
120	0xbd587372	-0.052844472
121	0xbd829ab8	-0.063771665
122	0x3de959fb	0.113941155
123	0x3dc1ed9e	0.0946915
124	0x3d94e2e8	0.072698414
125	0x3ccbdd3b	0.024885764
126	0xbc8ba129	-0.01704462
127	0xbca069b4	-0.019581653
128	0x3c9a1b38	0.018811807
129	0x3c4553b9	0.012043887
130	0xbd2326cb	-0.039831918
131	0x3d87f62d	0.06638751
132	0x3a493bcd	0.00076764525
133	0xbda26328	-0.07929069
134	0xbd72afac	-0.059249565
135	0xbe2bed94	-0.16789848
136	0x3b5e9d6f	0.003396835
137	0x3da7292c	0.0816215
138	0x3afff8bb	0.0019529084
139	0x3cfb5ee3	0.030684894
140	0x3cbb9a2f	0.022900669
141	0xbe121fd3	-0.14269952
142	0xbd332b08	-0.04374221
143	0x3ce828f9	0.02833985
144	0xbda7cd14	-0.081934124
145	0x3d940de3	0.07229211
146	0x3cc4765c	0.02398222
147	0xb940d786	-0.00018390836
148	0x3b8972ba	0.0041945847
149	0x3d779412	0.060443945
150	0xbd5e4d98	-0.054273218
151	0xbce01cf3	-0.027357554
152	0xbd1623c2	-0.036655195
153	0x3c0e6919	0.008692049
154	0xbdcbab93	-0.099448346
155	0x3c2dcebe	0.010608373
156	0xbd0b7288	-0.034044772
157	0xbceb752c	-0.028742395
158	0x3d7da4f6	0.061924897
159	0xbd213b50	-0.039363205
160	0xbd930d78	-0.07180303
161	0x3d634444	0.055485025
162	0xbd352061	-0.044220332
163	0xbcb5aa83	-0.022176033
164	0xbcd410a1	-0.025886836
165	0xbd44d309	-0.04805282
166	0xbd09c94b	-0.033639234
167	0x3c9e75f6	0.019343358
168	0xbccc8136	-0.024963956
169	0xbd91760e	-0.07102595
170	0xbd3b9122	-0.045792706
171	0xbc8b12b9	-0.016976701
172	0xbcbd2378	-0.023088202
173	0x3d20218f	0.039094504
174	0x3c8cc54f	0.017183928
175	0x3c832f7e	0.016013857
176	0xbbd8c6d7	-0.0066155004
177	0xbcfa5e05	-0.03056241
178	0xbd825878	-0.0636453
179	0xbd27d34f	-0.040973004
180	0x3deaddbe	0.11468075
181	0x3d0973f0	0.033557832
182	0x3dfd939b	0.12381669
183	0xbd15b654	-0.036550835
184	0xbd8bda36	-0.0682873
185	0xbd025512	-0.03181941
186	0x3d9af7c1	0.075667866
187	0xbd63bc2e	-0.055599384
188	0xbd018ce9	-0.031628523
189	0xbd4f969e	-0.05068075
190	0x3dc9d1ae	0.09854446
191	0xbd04496b	-0.03229658
192	0x3e0b41d6	0.13599333
193	0xbcc23814	-0.02370838
194	0xbc88536b	-0.01664134
195	0xbd641a53	-0.055689167
196	0x3d05042b	0.032474678
197	0x3c8ae81f	0.016956387
198	0x3d877493	0.06614032
199	0xbc97f62e	-0.018550005
200	0xbc4f6992	-0.012659447
201	0xbd94aa15	-0.07259003
202	0xbd456736	-0.048194133
203	0x3c1afc2e	0.009459538
204	0x3d05fde6	0.03271284
205	0xbcf99ad1	-0.03046933
206	0xbe0d3033	-0.13787918
207	0xbd15e64b	-0.036596578
208	0xbd34bc04	-0.04412462
209	0x3bff0b9f	0.0077833678
210	0x3d3a5d6f	0.04549926
211	0x3c3120bd	0.010811028
212	0x3cd8d7a6	0.026470017
213	0xbc938647	-0.018008364
214	0xbd4310ca	-0.047623433
215	0x3d1ec444	0.038761392
216	0xbd478329	-0.04870907
217	0x3d640ea7	0.055678036
218	0xbd7a78c2	-0.06115032
219	0x3d2f1de6	0.042753123
220	0xbc83306c	-0.0160143
221	0xbc0c3f35	-0.008559992
222	0xbd3c8f5d	-0.04603516
223	0x3d327df0	0.043577135
224	0xbc56ae02	-0.01310301
225	0xbc42e6e1	-0.011895866
226	0xbd56bcf3	-0.05242629
227	0xbda0ee49	-0.07857949
228	0xbd913f24	-0.07092121
229	0x3dce3bf9	0.100700326
230	0x3d88f977	0.06688207
231	0x3d5ce489	0.053928886
232	0x3d89ae72	0.06722726
233	0x3c85ba2b	0.016324123
234	0xbcc472cc	-0.02398052
235	0x3d839503	0.06424906
236	0xbdaf9bbb	-0.08574625
237	0xbc7a59a2	-0.015280159
238	0xbbb92a18	-0.00565077
239	0xbd85165f	-0.064984076
240	0xbe269f40	-0.16271687
241	0x3d3baf26	0.04582133
242	0xbd97e8e6	-0.07417469
243	0x3d3a447b	0.045475464
244	0xbccf482c	-0.025302969
245	0xbcdf0aa0	-0.027226746
246	0x3d67804b	0.056518834
247	0x3d5f21ef	0.05447572
248	0xbce7fc14	-0.028318442
249	0xbb0d710e	-0.0021582278
250	0xbd151300	-0.036395073
251	0x3ab87779	0.0014073692
252	0xbdcd6d84	-0.10030654
253	0xbd155ef0	-0.036467493
254	0x3d457d3d	0.04821514
255	0xbe125267	-0.14289246

base_model.model.transformer.h.0.attn.c_attn.lora_B.weight f4 [2304, 2]
0	0xbca381dc	-0.019959383
1	0xbd19c5c9	-0.03754214
2	0xbdcce5be	-0.10004757
3	0xbc88cbea	-0.016698796
4	0xbcf7885c	-0.030216388
5	0x3d5516bb	0.05202363
6	0xbded9ca7	-0.11602145
7	0xbd0130ca	-0.03154067
8	0x3d9366d7	0.071973495
9	0x3c6f029f	0.014588027
10	0x3c1b389b	0.009473945
11	0xbd7fb778	-0.06243083
12	0xbda66bb2	-0.0812601
13	0xbd0d8627	-0.034551766
14	0x3c1aafdb	0.009441341
15	0xbd719395	-0.058978636
16	0x3d33f622	0.043935902
17	0xbd1c3cf8	-0.03814408
18	0xbcc3e92b	-0.023914894
19	0x3b7a102a	0.0038156607
20	0xbd30bd2d	-0.043149162
21	0xbd07e154	-0.033173874
22	0xbd8a95d3	-0.06766858
23	0x3d00d532	0.03145332
24	0x3da34586	0.07972245
25	0xbc5a677c	-0.013330337
26	0x3c6f90bd	0.014621911
27	0x3d25fb86	0.040523075
28	0x3d85f9f6	0.06541817
29	0xbd73c3a4	-0.05951275
30	0xbdeb9d93	-0.11504664
31	0xbc7283fc	-0.014801975
32	0x3acb232f	0.0015498156
33	0x3d14cd82	0.0363288
34	0xbc8587f4	-0.016300179
35	0xbab9c521	-0.0014173129
36	0x3c96d0d3	0.018410122
37	0x3d5985f0	0.05310625
38	0x3c4a24e3	0.012337896
39	0xbd306e09	-0.043073688
40	0x3ccd0b71	0.02502987
41	0xbca2c4d0	-0.019869238
42	0x3d9b2437	0.07575267
43	0xbbde263e	-0.006779461
44	0xbda37d7d	-0.07982919
45	0xbd9fc8c0	-0.07801962
46	0xbdc3b175	-0.095553316
47	0xbd769947	-0.06020477
48	0xbdba6e0d	-0.09103022
49	0xbd337083	-0.04380847
50	0xbb8b9390	-0.004259534
51	0xbd136de4	-0.03599347
52	0x3d634102	0.05548192
53	0xbdb394ba	-0.08768602
54	0xbbe32a3c	-0.006932525
55	0xbd2eb3d8	-0.04265198
56	0x3956165f	0.00020416964
57	0xbcec143f	-0.028818248
58	0x3d931aef	0.071828716
59	0xbcb89aac	-0.02253469
60	0x3d188309	0.03723434
61	0xbad33cd9	-0.0016116156
62	0xbd0c396f	-0.03423446
63	0xbca2efa1	-0.019889655
64	0xbbfea76b	-0.0077714226
65	0xbd05093d	-0.032479513
66	0xbd909dc1	-0.07061339
67	0xbb3ef0f4	-0.0029135318
68	0xbd0f61c5	-0.03500535
69	0x3c85d7db	0.01633828
70	0xbd59ecf5	-0.053204495
71	0xbb32242b	-0.0027182202
72	0xbc90c45b	-0.017671755
73	0x3d83e64d	0.06440411
74	0x3da29c99	0.07940025
75	0xbcd6d2a3	-0.026223486
76	0xbcc61908	-0.024181858
77	0xbd02175d	-0.031760562
78	0x3d189067	0.037247088
79	0x3c26765c	0.010160055
80	0xbc66087b	-0.014040108
81	0xbcbe2744	-0.023212083
82	0x3bcdeb22	0.0062841335
83	0xbda34784	-0.07972625
84	0x3d878d91	0.066187985
85	0xbd31f0b6	-0.04344245
86	0x3c4f343a	0.012646729
87	0x3ccba193	0.024857318
88	0xbc7e4bd8	-0.015521012
89	0x3c0edb00	0.008719206
90	0xbc0c4938	-0.008562379
91	0xbbd16650	-0.0063903704
92	0xbdebd756	-0.115156814
93	0xbc119feb	-0.008888225
94	0xbd3ed73d	-0.046591986
95	0x3d4f393f	0.050591704
96	0x391fcfbf	0.00015240813
97	0xbc8ff4d1	-0.017572792
98	0x3d191b7a	0.03737972
99	0x3d29b492	0.04143197
100	0x3d3e6005	0.04647829
101	0xbd4f2d4f	-0.05058032
102	0x3d9f69c9	0.07783849
103	0x3c0eddec	0.0087199025
104	0xbdc24d18	-0.09487361
105	0xbc85c155	-0.01632754
106	0x3dcd28c4	0.10017541
107	0x3cb09699	0.021556186
108	0xbdbed499	-0.093178935
109	0xbd61c12b	-0.05511586
110	0x3c123239	0.008923107
111	0xbd2bd23c	-0.041948542
112	0x3d99bef7	0.07507127
113	0xbc59ce64	-0.013293836
114	0x3d3a768e	0.04552322
115	0xbca1170f	-0.019664316
116	0xbd357c0a	-0.044307746
117	0xbd4732b7	-0.04863235
118	0xbc9c5dc1	-0.019087674
119	0x3d75ec2e	0.06003969
120	0xbb4cb011	-0.0031232873
121	0xbd26802a	-0.04064957
122	0x3cdd1213	0.026986158
123	0x3d9e0c01	0.07717133
124	0xbc9477a1	-0.01812345
125	0x3d6e2840	0.058143854
126	0xbd27f981	-0.04100943
127	0x3c1c8d3d	0.009555158
128	0x3cd21747	0.025645865
129	0x3d9bc16a	0.0760525
130	0xbd5eb866	-0.054375075
131	0xbcbb65ca	-0.022875685
132	0xbd3e29c6	-0.046426557
133	0xbcb23ec5	-0.021758446
134	0xbd0682ff	-0.03283977
135	0xbd9485a6	-0.07252054
136	0x3c040356	0.008057436
137	0x3c85e1fa	0.016343106
138	0x3d18e083	0.037323486
139	0xbde90983	-0.11378767
140	0xbd9ae2a8	-0.075627625
141	0x3c305386	0.010762101
142	0x3af980e0	0.00190356
143	0x3c63706a	0.013881782
144	0x3c8344ab	0.016023954
145	0xba8117fc	-0.0009849067
146	0x3b9822d9	0.004642826
147	0x3c6b88c6	0.014375871
148	0x3c0d8267	0.008637047
149	0x3bbba2af	0.0057261805
150	0x3d2cd9e7	0.042199995
151	0x3cd6e28e	0.026231077
152	0xbcfa3b29	-0.030545788
153	0x3d93b1b9	0.07211632
154	0x3cf8837b	0.030336132
155	0xbccdbc45	-0.025114188
156	0xbc19812b	-0.009369175
157	0x3b0b9bd4	0.0021302598
158	0x3d2d16a0	0.042257905
159	0xbca11a74	-0.019665934
160	0xbc9b4d68	-0.018957809
161	0xbd3eff4e	-0.046630196
162	0x3d284157	0.041077938
163	0x3cef73bf	0.029229997
164	0x3cdf1a00	0.027234077
165	0x3cb8abbf	0.022542832
166	0xbcf65850	-0.030071408
167	0x3b668d6f	0.0035179516
168	0x3c034e28	0.008014239
169	0x3d0a9694	0.03383501
170	0x3bd5784f	0.006514586
171	0x3ce69d28	0.02815111
172	0x3da8c67d	0.08240984
173	0x3c1c967d	0.009557364
174	0x3d4cdbc6	0.05001428
175	0x3d3fd4d4	0.046833828
176	0xbd2ab545	-0.04167678
177	0xbce1b568	-0.027552322
178	0xbcbf22fb	-0.02333211
179	0xbd961299	-0.07327766
180	0xbcebdb05	-0.02879096
181	0xbc1ac274	-0.009445775
182	0xb9032c62	-0.00012509667
183	0xbd4c6fa9	-0.049911175
184	0x3ac671d2	0.0015140122
185	0xbd131f1e	-0.035918348
186	0xbc99f85a	-0.018795181
187	0xbb66c326	-0.0035211532
188	0xbc95d8e7	-0.018291904
189	0xbc5d8b6f	-0.013522013
190	0xbd6529b0	-0.05594796
191	0xbd136b7a	-0.03599117
192	0x3b7cf522	0.003859826
193	0x3bfd26a3	0.007725553
194	0x3db70cca	0.08937986
195	0x3d34c8b0	0.044136703
196	0x3d925272	0.071446314
197	0xbc97e4f4	-0.01854179
198	0xbd739e47	-0.059477117
199	0x3ca47310	0.020074397
200	0x3d9863c6	0.07440905
201	0x3df3da3c	0.11906859
202	0x3bd90adb	0.0066236085
203	0x3ca833ad	0.020532453
204	0xbcedc378	-0.02902387
205	0x3ccc9ed3	0.024978077
206	0xbd28bca0	-0.04119551
207	0xbd5911df	-0.05299556
208	0xbc536dcf	-0.012904598
209	0xbd11f9f0	-0.03563875
210	0xbb8c8ea5	-0.0042894655
211	0xbd80cb87	-0.0628882
212	0x3cb0bdb3	0.02157483
213	0xbcd74665	-0.026278684
214	0xbc14832f	-0.00906448
215	0xbd50e561	-0.051000003
216	0xbd943e87	-0.07238489
217	0x3c6bb886	0.014387256
218	0xbcbc2140	-0.022965074
219	0xbd1ec6f4	-0.038763955
220	0x3a82b426	0.0009971901
221	0x3b96b177	0.004598792
222	0x3cf3f231	0.029778572
223	0x3d638e61	0.055555705
224	0x3cabe5dd	0.02098363
225	0xbd744d41	-0.059643988
226	0x3c3c12cd	0.011479092
227	0xbd17be52	-0.037046738
228	0xbcdf7012	-0.027275119
229	0x3ba730f3	0.0051022707
230	0xbc83c134	-0.016083337
231	0xbb2bd37e	-0.0026218588
232	0x3d0ced1c	0.034405813
233	0xbcd6e513	-0.026232278
234	0xbd140d20	-0.03614533
235	0xbc848280	-0.016175508
236	0xbc01daa5	-0.007925664
237	0xbc842b1f	-0.016133843
238	0xbd3725b2	-0.044713683
239	0x3d3353bf	0.04378104
240	0x3cd5d7f0	0.026103944
241	0xbb2f31f9	-0.0026732667
242	0x3cb1d58d	0.021708274
243	0x3a3d9597	0.00072320685
244	0x3ca9e00b	0.020736715
245	0x3d7f83e4	0.06238164
246	0xbd67bf80	-0.056579113
247	0xbd0889fd	-0.03333472
248	0x3ca68185	0.020325432
249	0xbc066a70	-0.008204088
250	0xbd53e374	-0.051730588
251	0x3cf025f4	0.029314972
252	0x3d54da1f	0.05196583
253	0x3c93362c	0.017970167
254	0xbb64093e	-0.0034795548
255	0x3cf2a14a	0.029617924

base_model.model.transformer.h.1.attn.c_attn.lora_A.weight f4 [2, 768]
0	0xbd99d71e	-0.075117335
1	0xbd39f6a7	-0.04540124
2	0x3db6af10	0.08920109
3	0x3b83ff67	0.004028249
4	0xbd3e1dcb	-0.04641513
5	0xbd30e318	-0.043185323
6	0xbd1633db	-0.036670547
7	0x3cd80540	0.02636969
8	0x3c26b039	0.010173851
9	0xbd8b8941	-0.068132885
10	0x3ca3f288	0.020013109
11	0x3b46a20c	0.003030899
12	0x3c8cc319	0.017182874
13	0x3d9e38e7	0.07725697
14	0xbd84060d	-0.064464666
15	0x3d763489	0.060108695
16	0xbcf8aef1	-0.030356856
17	0xbd01d389	-0.031695876
18	0x3cdc0529	0.02685793
19	0x3d746449	0.059665952
20	0x3d9e79c2	0.07738067
21	0x3d360c48	0.044445306
22	0xbd9840f0	-0.07434261
23	0xbb6d9c20	-0.0036256388
24	0xbbedb6a4	-0.0072544385
25	0xbdede45c	-0.11615822
26	0xbd408546	-0.0470021
27	0xbdac697d	-0.08418558
28	0x3d9cb845	0.07652334
29	0x3cde4f33	0.027137375
30	0x3d0f61ca	0.03500537
31	0x3d5e48e2	0.054268725
32	0x3d21e700	0.03952694
33	0xbcc2dd94	-0.023787297
34	0x3d8eb4b6	0.069680616
35	0xbd8f6c15	-0.07003037
36	0x3ca561f8	0.020188317
37	0xbda398ce	-0.079881296
38	0xbd2c1048	-0.042007715
39	0x3d9006ff	0.070325844
40	0x3d11a62b	0.03555886
41	0x3d1a5d27	0.037686493
42	0xbd306215	-0.04306229
43	0xbda89458	-0.08231419
44	0x3c9ac772	0.018893931
45	0x3b938268	0.0045016296
46	0x3c92d609	0.017924326
47	0x3d66adda	0.05631814
48	0xbd55a835	-0.052162368
49	0xbd90a354	-0.07062402
50	0x3d1e5382	0.038653858
51	0xbcb24cac	-0.021765076
52	0xbda02efe	-0.07821463
53	0x3c93c70d	0.01803925
54	0xbd0c95e4	-0.034322634
55	0xbd998223	-0.07495525
56	0x3d831fe0	0.06402564
57	0xbcedda54	-0.029034771
58	0xbd852759	-0.065016456
59	0xbcc6f5bb	-0.024287095
60	0x3d0f0f56	0.034926735
61	0xbbf6aba7	-0.007527787
62	0xbda77bce	-0.08177911
63	0xbbb9383f	-0.005652457
64	0xbd179411	-0.03700644
65	0x3d59d456	0.053181015
66	0x3b32f770	0.0027308129
67	0x3d50fb26	0.051020764
68	0xbd393d13	-0.04522426
69	0xbcd1c75d	-0.02560776
70	0xbd27c343	-0.0409577
71	0x3d5b1bc5	0.05349328
72	0x3d263911	0.040581767
73	0x3c163c30	0.009169623
74	0x387a1360	5.962269e-05
75	0xbc03eddc	-0.008052316
76	0xbd5d0280	-0.053957462
77	0xbd662553	-0.05618794
78	0x3d4eb671	0.05046696
79	0x3cb08d76	0.021551829
80	0xbcb1907a	-0.021675337
81	0x3d8dcfe0	0.06924415
82	0xbd371b15	-0.04470356
83	0x3b6cdfe1	0.0036144184
84	0xbd1fa8b0	-0.038979232
85	0xbc777613	-0.015103835
86	0xbd43dcd3	-0.047818016
87	0xbcca72af	-0.024712889
88	0x3cbba913	0.02290777
89	0x3d222a2c	0.039591
90	0xbbf3a6f7	-0.0074356752
91	0x3d552e9b	0.0520464
92	0xbd63a079	-0.05557296
93	0xbc810aaf	-0.015752165
94	0xbccf88b1	-0.025333734
95	0xbccd432b	-0.025056442
96	0x3ca10e1c	0.019660048
97	0xbdbf8ff2	-0.09353627
98	0x3c3ac534	0.011399556
99	0xbcc7f5cc	-0.024409197
100	0x3c88d752	0.016704235
101	0x3d36cd20	0.044629216
102	0x3ca9dd64	0.02073545
103	0xbd167a37	-0.036737647
104	0x3cc10a89	0.023564594
105	0x3d9fcebc	0.07803103
106	0x3cdbca88	0.026829973
107	0x3c892271	0.016740056
108	0xbd9041ab	-0.07043775
109	0xbd3ee5c8	-0.046605855
110	0x3c7a1e49	0.01526601
111	0xbaaa1082	-0.001297489
112	0x3d56fc98	0.052486986
113	0xbd9d35b7	-0.07676261
114	0xbcd2594b	-0.025677344
115	0xbc822776	-0.015887957
116	0x3ca39e45	0.01997293
117	0x3d14acc9	0.036297593
118	0xbd0c9fdb	-0.034332138
119	0x3d4cd381	0.050006393
120	0x3ca8089f	0.020511923
121	0x3a27e758	0.00064050173
122	0xbcf5a4a6	-0.029985737
123	0x3c888210	0.016663581
124	0x3c7510eb	0.014957647
125	0x3cc27200	0.023736
126	0x3da276c0	0.07932806
127	0x3c0029b8	0.0078224465
128	0x3c81fb98	0.01586704
129	0x3b622960	0.0034509525
130	0xbd3a03c0	-0.045413733
131	0xbd363866	-0.04448738
132	0xbcc3c488	-0.023897424
133	0xbcb011a4	-0.021492787
134	0x3c36212b	0.011116306
135	0x3d01d18c	0.03169398
136	0x3d8fd6cf	0.07023393
137	0xbda0806d	-0.07836995
138	0xbd85dd93	-0.065364026
139	0xbd5f5612	-0.054525442
140	0xbd84e91b	-0.06489774
141	0xbc1317a2	-0.0089778025
142	0x3d46c976	0.048531972
143	0xbd24b8c9	-0.040215287
144	0x3c98475e	0.018588718
145	0x3b664d87	0.0035141425
146	0x3d0fb2dd	0.035082687
147	0x3da726ce	0.08161698
148	0x3bddba3b	0.006766585
149	0xbc837e90	-0.01605156
150	0x3d08b3fd	0.033374775
151	0xbd6b890a	-0.057503738
152	0xbbce6b96	-0.0062994463
153	0xbb21964d	-0.0024656237
154	0xbda2ab91	-0.0794288
155	0xba57817b	-0.0008220893
156	0xbdb06cd3	-0.086145066
157	0xbc989a15	-0.01862816
158	0x3ca9f99f	0.020748911
159	0x3cf1da78	0.02952312
160	0x3e07db4e	0.13267252
161	0x3d8b22d0	0.06793749
162	0x3c618ce7	0.013766504
163	0x3d2506d1	0.040289704
164	0xbd7389a0	-0.05945742
165	0xbd12d42d	-0.035846878
166	0xbc110ea0	-0.0088535845
167	0xbcfdd7af	-0.030986635
168	0xbd80c788	-0.062880576
169	0x3c54e4ba	0.012993986
170	0xbd57325a	-0.052538253
171	0x3d903dd8	0.07043046
172	0x3b9a11f3	0.0047018467
173	0xbb622c5b	-0.0034511301
174	0xbbbdbf3f	-0.0057906206
175	0xbd3ffde9	-0.046873007
176	0xbcdb210f	-0.026749162
177	0xbda767d4	-0.081741005
178	0xbd19f85f	-0.03759038
179	0xbd01334a	-0.031543054
180	0xbcf1add2	-0.02950183
181	0x3ccad5be	0.024760123
182	0x3cbc5918	0.022991702
183	0xbdcbd3ce	-0.09952508
184	0xbd4a7e30	-0.049436748
185	0x3d952940	0.072832584
186	0x399231b5	0.00027884325
187	0x3d4e052e	0.05029791
188	0xbd369b98	-0.04458198
189	0x3db55126	0.088533685
190	0x3d217125	0.039414544
191	0xbc089343	-0.008335891
192	0xbd45a742	-0.048255213
193	0x3c45b2f1	0.012066589
194	0xbca40d4b	-0.02002587
195	0xbd6bd607	-0.05757716
196	0x3cfa2126	0.030533385
197	0x3c55baa3	0.013044986
198	0xbd79e5a9	-0.061010037
199	0xbd8de84f	-0.06929075
200	0x3d0274af	0.03184956
201	0x3c419be1	0.01181695
202	0xbc1628c2	-0.009164991
203	0xbd70bb22	-0.058772214
204	0xbb5e24d6	-0.0033896468
205	0xbd7acc26	-0.061229847
206	0xbce8f0b0	-0.028435081
207	0x3de2dae3	0.110769056
208	0xbabaf4b0	-0.0014263596
209	0xbd2a57ab	-0.041587513
210	0x3da6c91c	0.08143827
211	0x3bdb37a2	0.0066899816
212	0xbd26fff5	-0.040771443
213	0x3d7e24b4	0.06204672
214	0xbcbe4ed5	-0.02323095
215	0xbd1073b4	-0.035266593
216	0x3c40bda3	0.011763963
217	0xbcee9d8e	-0.029127862
218	0x3cac4582	0.021029238
219	0x3c41ad31	0.011821077
220	0xbc30e6a7	-0.010797179
221	0x3c2e7ff5	0.0106506245
222	0xbd9ade06	-0.07561879
223	0x3d5014ef	0.050801214
224	0xbdbb1176	-0.0913419
225	0xbd1a16b1	-0.037619296
226	0x3d2fa845	0.042885084
227	0x3ce9cce1	0.028540077
228	0xbbbb56b8	-0.005717125
229	0x3bcea68c	0.006306475
230	0x3d13955c	0.036031112
231	0xbc24fd9c	-0.010070231
232	0xbce03c79	-0.027372586
233	0xbdbbbafa	-0.09166522
234	0x3d22a223	0.039705407
235	0x3d45389a	0.048149683
236	0x3d11c99f	0.03559267
237	0xbd2206ca	-0.039557256
238	0xbcb16de1	-0.02165884
239	0x3d6958ef	0.05696958
240	0xbdcaa2b3	-0.09894314
241	0xbd00e041	-0.031463865
242	0x3b6742cb	0.0035287614
243	0xbd8eb75e	-0.06968568
244	0x3ca33378	0.019922003
245	0xbcd0be58	-0.025481388
246	0x3d9554ef	0.072915904
247	0x3c66330e	0.014050258
248	0x3d2dc26f	0.042421754
249	0x3c3a5519	0.011372828
250	0x3cfc7bfb	0.030820837
251	0xbc00ed05	-0.00786901
252	0x3d9f36ce	0.07774125
253	0xbd8ba6c5	-0.06818918
254	0xbda0eb83	-0.0785742
255	0x3ce2ee1f	0.027701436

base_model.model.transformer.h.1.attn.c_attn.lora_B.weight f4 [2304, 2]
0	0x3adfa4ea	0.0017062698
1	0xbb1964f5	-0.0023406122
2	0xbd8df053	-0.06930604
3	0xbd2245c3	-0.03961731
4	0x3c96f2ce	0.018426325
5	0x3c66a10e	0.014076484
6	0x3d3611b6	0.044450484
7	0x3b80f7ec	0.0039358046
8	0xbd0cbb1e	-0.034358136
9	0x3c4af687	0.012387878
10	0x3cf4e7d6	0.029895704
11	0xbc91cc16	-0.017797511
12	0x3d17539c	0.03694497
13	0x3d09df1d	0.033660043
14	0xbd2653d9	-0.040607307
15	0x3d6aff63	0.057372462
16	0xbda531b7	-0.08066123
17	0x3af77712	0.001888009
18	0x3c36b8cb	0.0111524565
19	0xbd9a5c64	-0.07537153
20	0xbd7b4b2c	-0.061350986
21	0xbd8b6d0c	-0.068079084
22	0xbd89db7d	-0.06731317
23	0xbd01d3e8	-0.03169623
24	0x3d9165f0	0.07099521
25	0xbb2ec640	-0.002666846
26	0x3d885f09	0.066587515
27	0x3cdbf60a	0.026850719
28	0x3d36b442	0.0446055
29	0x3d0ec6db	0.034857612
30	0xbd0cdd86	-0.03439095
31	0x3c5a9b80	0.013342738
32	0x3c1f5a6f	0.009726151
33	0x3cbdaf83	0.02315498
34	0x3c78f022	0.015193971
35	0xb9ca18c2	-0.00038546888
36	0x3cb4ac87	0.022054924
37	0x3c80681a	0.01567464
38	0xbd36969e	-0.044577233
39	0xbdbd5bbc	-0.092460126
40	0xbbcf9786	-0.0063352017
41	0x3b4c3fa4	0.0031165862
42	0x3d93f0a0	0.0722363
43	0x3d692117	0.056916323
44	0x3cf124c2	0.029436473
45	0xbcedc18f	-0.02902296
46	0x3d225166	0.03962841
47	0xbbfa53e1	-0.0076393937
48	0xbd027306	-0.031847976
49	0xbd0e4237	-0.034731116
50	0x3d4e415d	0.050355304
51	0xbced8d17	-0.028997941
52	0x3d0bee89	0.03416303
53	0xbd58b368	-0.05290547
54	0x3c916eba	0.017752994
55	0x3d46be10	0.0485211
56	0x3cbe85a8	0.023257092
57	0x3bdb9a42	0.0067017386
58	0xbcd66dbd	-0.026175374
59	0xbd1b2c1b	-0.03788386
60	0xbb1e8fa5	-0.0024194506
61	0x3bb58a60	0.005540177
62	0xbbecbfff	-0.007225036
63	0x3cd2c575	0.02572892
64	0x3bd8da5c	0.0066178273
65	0xbd3ce493	-0.046116423
66	0x3ace2135	0.0015726449
67	0x3d02e06e	0.031952314
68	0x3d5706e0	0.05249679
69	0x3d907071	0.070526965
70	0x3d427250	0.0474723
71	0xbd22995d	-0.03969704
72	0x3d32a0f7	0.04361054
73	0x3c4142c9	0.011795708
74	0xbcad203d	-0.021133536
75	0x3b6425f6	0.0034812666
76	0x3cf4cdc4	0.029883273
77	0xbd18d726	-0.037314557
78	0xbd388c09	-0.045055423
79	0xbd348ded	-0.044080663
80	0xbcd8ec8c	-0.026479982
81	0x3d0f0523	0.034917008
82	0xbd02d587	-0.031941917
83	0xbbfd6fc1	-0.0077342694
84	0x3d379996	0.044824205
85	0x3ccf03bc	0.025270335
86	0xbcffb22c	-0.031212889
87	0x3988e3e8	0.00026109745
88	0xbd878fe5	-0.066192426
89	0xbd88369a	-0.066510394
90	0x3ce147fc	0.027500145
91	0xbcfc0862	-0.030765716
92	0xbd9d3a78	-0.07677168
93	0x3d5c69e1	0.05381191
94	0xbbc6e90b	-0.0060702614
95	0x3d360d72	0.044446416
96	0x3c99525f	0.018716035
97	0xbc9447db	-0.01810067
98	0xbc053a3b	-0.008131559
99	0x3b86c5da	0.004112941
100	0x3caf052f	0.021364776
101	0xb9bf28c5	-0.00036460735
102	0x3c98fad9	0.018674301
103	0xbcdd26b1	-0.026995989
104	0x3d034f5e	0.032058112
105	0x3d6b43cf	0.057437714
106	0x3c900a50	0.017583042
107	0x3cec66c5	0.028857598
108	0x3cf51137	0.029915435
109	0x3c316a5a	0.010828579
110	0x3ce1af7d	0.0275495
111	0xbbcbde0a	-0.0062215375
112	0x3da45b4d	0.08025227
113	0xbc4a8ba9	-0.012362399
114	0xbc7fc16e	-0.015610082
115	0xbd85670e	-0.06513797
116	0xbd35cf72	-0.04438729
117	0x3d15af3c	0.03654407
118	0xbc6fd295	-0.014637609
119	0x3d4dcb8a	0.050242938
120	0x3cf5436a	0.029939372
121	0x3d0026ff	0.03128719
122	0xbc96743a	-0.018365968
123	0xbd53b7b2	-0.051688857
124	0x3d0c5dd1	0.034269158
125	0xbd88f5a2	-0.06687476
126	0x3ca949eb	0.02066513
127	0x3d7398d2	0.059471913
128	0x3d63c5ea	0.055608667
129	0xbd0ac39d	-0.033877958
130	0xbc8ce2b2	-0.01719794
131	0x3d1b3ef2	0.037901826
132	0x3c012c86	0.00788415
133	0x3c92eeb3	0.017936086
134	0x3d626a61	0.055277232
135	0x3c1c7ddb	0.009551491
136	0x3d25a27f	0.04043817
137	0xbd515d93	-0.05111463
138	0xbcee4790	-0.029086858
139	0x3d885d19	0.06658382
140	0x3d26f22f	0.040758308
141	0x3db5154a	0.08841951
142	0xbc79fd62	-0.015258165
143	0x3c849c00	0.016187668
144	0x3dbe7ac7	0.09300762
145	0xbb9a3edd	-0.004707201
146	0xbc47b208	-0.012188442
147	0x3d4dee8a	0.050276317
148	0xbce62c7b	-0.028097382
149	0xbd33ff65	-0.043944735
150	0x3da80a64	0.08205107
151	0xbd69c84e	-0.05707579
152	0x3c7c223d	0.015389022
153	0xbd2947f1	-0.041328374
154	0x3d38e66d	0.045141626
155	0xbd589e24	-0.05288519
156	0xbd562218	-0.052278608
157	0x3c4dc3de	0.012558905
158	0x3ddc6223	0.107609056
159	0xbdb1092d	-0.08644328
160	0x3c3e1272	0.011601077
161	0x3d0fa904	0.035073295
162	0x3bca1428	0.0061669536
163	0xbc28371c	-0.010267045
164	0x3c8f0b20	0.01746136
165	0xbc508797	-0.01272764
166	0xbd084e42	-0.033277757
167	0x3d4c061e	0.04981052
168	0x3bf41535	0.007448817
169	0xbd85497d	-0.065081574
170	0xbb38b6f2	-0.0028185216
171	0x3c373d38	0.011184029
172	0x3d623292	0.05522401
173	0x3d363666	0.044485472
174	0x3d5a17ee	0.053245477
175	0x3cc2b665	0.023768613
176	0xbc3fe726	-0.011712825
177	0xbcb30990	-0.021855146
178	0x3d700262	0.058596022
179	0x3d43a600	0.04776573
180	0xbb1e61d0	-0.0024167188
181	0xbd5df417	-0.05418786
182	0x3d93e645	0.07221655
183	0xbcd89f87	-0.026443256
184	0x3cc353ec	0.023843728
185	0x3dc8ecbc	0.098107785
186	0x3c34d0bd	0.011036095
187	0xbdd6d364	-0.10489538
188	0xbbfc6213	-0.007702121
189	0x3d900c4e	0.07033597
190	0xbcf0a8da	-0.02937739
191	0x3d9d9c00	0.0769577
192	0x3d798a21	0.060922746
193	0x3d2d0021	0.04223645
194	0x3d557f21	0.052123193
195	0xbb737627	-0.0037149282
196	0xbacc9965	-0.001560968
197	0x3d508e17	0.050916757
198	0x3d6cdefd	0.057829846
199	0x3b5cd34e	0.0033695283
200	0xbcffccac	-0.031225525
201	0xbde15142	-0.11001827
202	0x3c573c8f	0.013136997
203	0xbc9faba0	-0.019491017
204	0xbce753fc	-0.028238289
205	0x3c82fc39	0.01598941
206	0xbd80121a	-0.062534526
207	0xbbee1b30	-0.0072664246
208	0xbc30a921	-0.010782511
209	0xbc99f506	-0.018793594
210	0x3b264246	0.0025369092
211	0xbd6808c2	-0.056648977
212	0x3ba680ce	0.0050812727
213	0x3d9a3495	0.075295605
214	0xbd67cb87	-0.056590583
215	0x3d5abe34	0.053404048
216	0x3d369286	0.04457333
217	0xbcac4f53	-0.021033918
218	0x3cbf2e73	0.023337578
219	0x3c968846	0.018375527
220	0x3bc50d02	0.0060135135
221	0x3df62951	0.12019599
222	0x3d9894db	0.07450267
223	0xbd9ff6c7	-0.07810741
224	0xbc31e59d	-0.010857967
225	0x3d766cf8	0.060162514
226	0x3db49732	0.08817901
227	0xbd939dc6	-0.07207827
228	0xba8f6d36	-0.0010942582
229	0xbd83c27e	-0.06433581
230	0x3dc23008	0.094818175
231	0x3cdb7172	0.026787493
232	0xbcb5dca7	-0.022199942
233	0xbd1771dc	-0.03697382
234	0x3a2badc8	0.0006549028
235	0x3be09ce8	0.006854642
236	0x3d0e7b42	0.034785517
237	0x3db65d0c	0.08904466
238	0x3d8336cb	0.06406935
239	0xbd5a97f7	-0.05336758
240	0x3d2992c0	0.041399717
241	0x3ce0dd85	0.027449379
242	0x3d31ede0	0.043439746
243	0x3ccbebaf	0.024892656
244	0x3cd5a53b	0.026079765
245	0xbcc37da0	-0.023863614
246	0x3b583ca6	0.0032995134
247	0x3d3c15b3	0.04591913
248	0x3d04e986	0.032449268
249	0x3d30e7c9	0.043189798
250	0x3d0a0d90	0.03370434
251	0x3ce1d466	0.0275671
252	0xbcf636bc	-0.030055396
253	0xbdc0de2b	-0.09417375
254	0xbc619d31	-0.0137703875
255	0xbafd13f0	-0.001930831

base_model.model.transformer.h.10.attn.c_attn.lora_A.weight f4 [2, 768]
0	0x3cf4a2d7	0.029862804
1	0x3d232c20	0.039837003
2	0x3d1d2970	0.038369596
3	0xbce5c937	-0.028050048
4	0x3bcda454	0.006275693
5	0x3c4d1551	0.012517289
6	0x3c9a75e5	0.018855045
7	0xbc07b4c4	-0.008282844
8	0x3d80501f	0.06265282
9	0xbca06c96	-0.019583028
10	0x3d0b029c	0.033938035
11	0x3cd3d795	0.025859633
12	0xbc35c385	-0.011093979
13	0x3d9f7387	0.07785707
14	0x3d11a663	0.03555907
15	0x3bb60140	0.005554348
16	0x3c8e5c37	0.017377956
17	0xbc5f1c78	-0.013617627
18	0xbc9a52e3	-0.018838352
19	0xbc13d0dc	-0.009021964
20	0xbb9afc29	-0.004729767
21	0xbcdb4fd7	-0.026771469
22	0x3a81f4fe	0.0009914932
23	0xbcbb2883	-0.022846466
24	0xbd3d50b5	-0.046219546
25	0x3d0f8b93	0.035045218
26	0xbd1e5fab	-0.038665455
27	0x3cab83cf	0.020936875
28	0xbce64b2a	-0.028112013
29	0x3d3db5c1	0.046315912
30	0xbd41d311	-0.04732043
31	0x3d0974e9	0.03355876
32	0x3c6a26ce	0.014291478
33	0x3cb5b569	0.02218123
34	0xbbb3318c	-0.005468553
35	0xbd2bde29	-0.041959915
36	0x3c38ca4a	0.011278698
37	0x3d510385	0.051028747
38	0xbae4ae55	-0.0017446975
39	0x3d6eb105	0.058274288
40	0x3da731fb	0.0816383
41	0x3c493edb	0.012283052
42	0x3d7db50e	0.061940245
43	0xbd33c9f6	-0.043893777
44	0x3af8fc00	0.0018996
45	0x3d76b775	0.060233552
46	0xbbf0c438	-0.00734761
47	0xbd176c99	-0.0369688
48	0xbcd19bfb	-0.025587073
49	0xbcdbc798	-0.026828572
50	0x3cbef164	0.023308463
51	0xbd4a1c35	-0.049343307
52	0xbca4e553	-0.020128882
53	0x3c81462f	0.015780536
54	0xbcd867ee	-0.026416745
55	0xbd17892a	-0.036996044
56	0xbd0b9f28	-0.03408733
57	0x3d3f759a	0.046743013
58	0xbd2baaee	-0.041911058
59	0xbce9dda3	-0.028548067
60	0xbc3c4719	-0.01149156
61	0xbcf23194	-0.029564656
62	0x3c6a2ada	0.014292443
63	0xbd4cf8fb	-0.050042134
64	0x3ca9d42f	0.02073106
65	0x3d4641f9	0.04840276
66	0xbd0d6b9a	-0.034526445
67	0x3cd515bc	0.02601134
68	0x3d412220	0.047151685
69	0x3c5a61cb	0.01332898
70	0x39cdfa94	0.00039287342
71	0xbd54f123	-0.05198778
72	0x3d2c8520	0.042119145
73	0xbd9e6d4f	-0.07735693
74	0xbba3feae	-0.0050047254
75	0xba1a9472	-0.0005896754
76	0xbd16c10d	-0.0368052
77	0x3d19d941	0.037560705
78	0xbd48a461	-0.04898489
79	0xbd1e1610	-0.03859526
80	0xbd050c9c	-0.03248273
81	0x3d9e4043	0.07727101
82	0xbd832cd6	-0.06405036
83	0xbd635ff8	-0.055511445
84	0xbcb8ef9e	-0.022575196
85	0x3b945131	0.0045262803
86	0x3c6ef9e3	0.014585945
87	0x3d3b312b	0.045701187
88	0xbd42d6a7	-0.04756799
89	0xbd05ec08	-0.0326958
90	0xbca28d9b	-0.019842913
91	0xbc94a7bd	-0.01814639
92	0xbd19354d	-0.037404347
93	0x3c756e79	0.014979952
94	0x3d617654	0.055044487
95	0xbcf00715	-0.029300252
96	0xbd18e470	-0.03732723
97	0x3cf32924	0.029682703
98	0x3c719eeb	0.014747362
99	0xbbf1689f	-0.007367208
100	0xbd3f09fd	-0.046640385
101	0x3cc95225	0.024575302
102	0xbc7dff2c	-0.015502732
103	0x3d661d31	0.056180183
104	0xbb932b8e	-0.004491276
105	0x3cd7afca	0.02632894
106	0x3cc7dbda	0.024396826
107	0x39c2b0cb	0.00037134285
108	0xbd4ec817	-0.05048379
109	0x3ceb11a7	0.02869494
110	0x3d498e15	0.049207766
111	0x3c827c6e	0.015928473
112	0x3cbe6048	0.02323927
113	0x3d555471	0.052082483
114	0xbd1b7946	-0.037957452
115	0x3d21ed7d	0.039533127
116	0x3c59e97e	0.013300298
117	0xbd53c758	-0.05170378
118	0x3c458201	0.012054921
119	0xbd4120cb	-0.047150414
120	0x3d84ad03	0.06478312
121	0xbccbb36a	-0.024865825
122	0x3d0c881f	0.034309503
123	0xbc9ffbff	-0.01952934
124	0xbcc2da5d	-0.023785764
125	0xbcda1fd6	-0.026626509
126	0x3db5df99	0.088805385
127	0x3d28b242	0.041185625
128	0x3d3fa1c5	0.046785135
129	0xbd4995aa	-0.049214996
130	0x3cef2c52	0.029195938
131	0x3b15b99b	0.0022846225
132	0x3c1bf5be	0.009519039
133	0x3ccf46ad	0.025302256
134	0xbcc40041	-0.023925902
135	0x3cc014eb	0.023447474
136	0xbcd5c8a4	-0.02609665
137	0xbd6a262c	-0.05716531
138	0x3cbedb4d	0.02329793
139	0xbda16740	-0.078810215
140	0xbcabb615	-0.020960847
141	0xbd627687	-0.055288818
142	0xbd0009db	-0.0312594
143	0xbb779e26	-0.0037783473
144	0xbc4f7801	-0.0126628885
145	0x3da637e3	0.08116128
146	0xbc8732d0	-0.016503721
147	0x3d780a13	0.060556483
148	0x3b32a06a	0.0027256259
149	0x3cedeea8	0.029044464
150	0x3d853edd	0.06506131
151	0x3d53b8e4	0.051689997
152	0xbc650080	-0.01397717
153	0x3caf1588	0.021372572
154	0x3b62be5a	0.0034598322
155	0x3d0789d5	0.03309043
156	0x3bbcf78e	0.0057668155
157	0x3ce98156	0.028504055
158	0xbd25cd32	-0.040478893
159	0xbb8d9cae	-0.004321656
160	0x3caa6cdb	0.02080386
161	0x3d2b8098	0.041870683
162	0x3d79a906	0.06095221
163	0x3c06f440	0.008236945
164	0x3cab98ee	0.020946946
165	0xbd1659ee	-0.036706857
166	0x3d5736c5	0.052542467
167	0x3d1e7712	0.038687773
168	0xba63796d	-0.00086774566
169	0xb9c540b0	-0.00037622964
170	0xbd4b3856	-0.049614273
171	0xbd70eb8c	-0.058818385
172	0xbc15c028	-0.009140052
173	0x3d3c7076	0.04600569
174	0xbcb88547	-0.02252449
175	0x3b2f3dfb	0.0026739824
176	0x3b0df17b	0.0021658826
177	0x3ceefa92	0.029172216
178	0xbd650a3d	-0.055917967
179	0xbc72be6e	-0.01481591
180	0xbbd58d4a	-0.006517087
181	0x3d4af747	0.04955223
182	0x3ce773b0	0.028253406
183	0x3d0d3b79	0.034480546
184	0x3cf936ad	0.03042158
185	0x3c9f1ad9	0.019421982
186	0xbc7d6598	-0.015466116
187	0xbc053137	-0.0081294095
188	0x3cc8e394	0.02452258
189	0xbcfc99eb	-0.030835113
190	0xbb193b04	-0.0023381123
191	0xbd8cfff9	-0.068847604
192	0x3ba84e64	0.005136298
193	0x3d204a8e	0.0391336
194	0x3b68f7fd	0.0035548203
195	0xbc0ef413	-0.008725184
196	0xbb387be6	-0.002815002
197	0xbcdaae70	-0.026694506
198	0xbc203381	-0.0097779045
199	0xbd800005	-0.06250004
200	0xbc8db2c1	-0.01729715
201	0xbc4cd29c	-0.012501385
202	0x3c8113dc	0.01575654
203	0xbb89c0b5	-0.0042038807
204	0xbd6320e6	-0.055451296
205	0x3cd751b8	0.026284084
206	0x3ae1ab76	0.0017217237
207	0xbd4f6ede	-0.05064284
208	0xbc6ee540	-0.014581025
209	0xbbc062b4	-0.0058711413
210	0xbb2b0b45	-0.0026099246
211	0x3cc78e84	0.024359949
212	0x3ceb81fa	0.028748501
213	0x3cb6eacc	0.022328757
214	0x3cab423a	0.020905603
215	0xbcd13383	-0.025537258
216	0xbd783ff6	-0.060607873
217	0x3cd1e04b	0.025619647
218	0x3d051993	0.032495093
219	0xbce730fc	-0.0282216
220	0x3d7db0d6	0.061936222
221	0xbbfafcff	-0.007659554
222	0xbae489e9	-0.001743612
223	0x3997818e	0.0002889749
224	0xbd8674b1	-0.06565226
225	0xbd013dcd	-0.03155308
226	0x3d31471b	0.043280702
227	0xbce6b31a	-0.028161574
228	0x3b76d5e1	0.0037664103
229	0xbd03ed97	-0.032209005
230	0x3c6a60ee	0.014305336
231	0x3c8c1d80	0.01710391
232	0x3ba17c16	0.0049281223
233	0x3baa3d37	0.0051952857
234	0x3d748544	0.059697405
235	0xbdac779c	-0.08421251
236	0xbc24205f	-0.0100174835
237	0x39a1ae5a	0.00030838215
238	0x3bd462b8	0.0064814948
239	0xbd8643bb	-0.06555887
240	0x3baa890a	0.0052043246
241	0xbba989fd	-0.00517392
242	0xbbee4cfd	-0.0072723613
243	0xbd1314e3	-0.03590859
244	0x3c4892b5	0.012242009
245	0x3d64f31b	0.055895906
246	0xbbe7c002	-0.0070724497
247	0x3beab73c	0.0071629565
248	0x3cd1052f	0.025515167
249	0x3dac8c31	0.08425177
250	0x3d46624b	0.048433583
251	0xbd132e8c	-0.035933062
252	0xbca8f334	-0.02062378
253	0x3aab8f39	0.0013088948
254	0xbb89c020	-0.0042038113
255	0xbd26a57e	-0.04068517

base_model.model.transformer.h.10.attn.c_attn.lora_B.weight f4 [2304, 2]
0	0xbc35464d	-0.011064124
1	0x3cdc81f2	0.026917432
2	0xbbb5d4db	-0.005549056
3	0xbc91c91c	-0.017796092
4	0x3ca9814f	0.020691542
5	0xbd224af8	-0.039622277
6	0x3d5f741d	0.054554094
7	0xbd5e2e3b	-0.054243308
8	0xbacb492f	-0.0015509481
9	0x3cdff44f	0.027338175
10	0xb92ccad4	-0.00016478758
11	0x3b92eb13	0.0044835894
12	0x3c37f923	0.011228832
13	0xbcb7b289	-0.022424
14	0xbd864015	-0.065551914
15	0x3d1d1fb5	0.038360316
16	0xbd19de9d	-0.037565816
17	0x3cd46775	0.025928238
18	0x3bd318c1	0.00644216
19	0x3d034e40	0.032057047
20	0xbc5688d5	-0.013094147
21	0x3bfc111c	0.0076924693
22	0xbd144586	-0.036199115
23	0x3d234085	0.039856452
24	0xbdaaf450	-0.0834738
25	0x3da7e42b	0.081978165
26	0x3d77676e	0.060401373
27	0xbd5651cf	-0.052324113
28	0x3def7287	0.11691766
29	0xbdeba9db	-0.11507007
30	0xbd41fb4b	-0.047358792
31	0x3cb2c05e	0.021820243
32	0xbc8cd276	-0.0171902
33	0x3cc9f855	0.024654547
34	0x3d46e0fa	0.048554398
35	0xbd860a8d	-0.06544981
36	0xbcffc068	-0.031219676
37	0x3ce7b405	0.028284082
38	0xbc857688	-0.016291872
39	0x3bec76a8	0.0072162934
40	0xbd85c5b2	-0.06531848
41	0x3d98b58c	0.07456502
42	0x3d85421b	0.06506749
43	0xbd15ceae	-0.03657406
44	0xbd477dfb	-0.04870413
45	0x3d8884a2	0.06665923
46	0xbd2c3c83	-0.042049896
47	0x3d5d1067	0.05397072
48	0xbd8dffa2	-0.06933524
49	0x3d88586b	0.066574894
50	0x3b8cbe13	0.0042951196
51	0x3c25a07f	0.010109066
52	0x3bcf93fc	0.00633478
53	0x3cbff15f	0.023430524
54	0x3d63623a	0.055513598
55	0xbd9061aa	-0.07049878
56	0x3c4bcc9f	0.012438922
57	0xbcf9c182	-0.03048778
58	0x3d1bb543	0.03801466
59	0xbd5a6fdf	-0.053329345
60	0xbc1b32d8	-0.009472571
61	0x3c9b0041	0.01892102
62	0xbcb895a3	-0.02253229
63	0xbb820667	-0.0039680484
64	0xbd20f6db	-0.03929792
65	0x3d7a10da	0.061051227
66	0xbc7ff409	-0.015622147
67	0x3cf4a9c3	0.029866105
68	0xbc25bff9	-0.010116571
69	0x3d0c6d81	0.03428412
70	0x3ce89090	0.028389245
71	0xbd3bf970	-0.04589218
72	0xbca995d3	-0.020701325
73	0xbc178e6d	-0.009250266
74	0x3d1f7647	0.038931157
75	0xbc9579ca	-0.01824655
76	0x3d287468	0.04112664
77	0xbc95fe8f	-0.01830986
78	0x3ccfe782	0.025378946
79	0xbd37fb89	-0.044917617
80	0xbd0cb221	-0.034349564
81	0xbcb3c96e	-0.021946635
82	0xbbeaf70b	-0.007170563
83	0xbcd1c7fe	-0.025608059
84	0xbcb54b59	-0.022130655
85	0xbbf1bca3	-0.0073772236
86	0xbc8845ea	-0.0166349
87	0xbc0d9029	-0.0086403275
88	0x3b89075c	0.0041817855
89	0x3d072955	0.0329984
90	0xbd23bc4d	-0.0399745
91	0x3bd0795a	0.0063621225
92	0xbd474df3	-0.048658323
93	0x3cb67970	0.022274703
94	0x3d5c5dd2	0.05380041
95	0xbd4942b5	-0.049135882
96	0x3d125736	0.035727702
97	0xbd363868	-0.044487387
98	0x3bf87103	0.0075818314
99	0x3c9a1de8	0.018813089
100	0xbca7caeb	-0.020482501
101	0x3bab857c	0.0052344184
102	0x3995fc53	0.0002860749
103	0x3c4bd17a	0.01244008
104	0x3d348714	0.044074133
105	0xbcdd950f	-0.027048616
106	0x3c926d4f	0.017874388
107	0xbc7cc72b	-0.015428345
108	0xbca3f8f9	-0.02001618
109	0xbb9c456d	-0.0047690184
110	0x3bc497be	0.0059995344
111	0x3c113fe2	0.0088653285
112	0xbca2b6b4	-0.01986251
113	0xbcc268bb	-0.02373158
114	0x3b3b58cf	0.002858687
115	0x3cc46879	0.023975598
116	0xbd8bb7c7	-0.06822162
117	0x3d7d868c	0.061895892
118	0x3ca83217	0.020531697
119	0x3c2f6b79	0.010706776
120	0xbce45ef3	-0.027877307
121	0xbca9a6fc	-0.020709507
122	0xbd1f1e3f	-0.038847204
123	0x3d4677b2	0.048453994
124	0xbca6343f	-0.020288585
125	0x3d172f9b	0.036910634
126	0xbd0d54a1	-0.034504537
127	0xb997a0fc	-0.00028920907
128	0x3c20db83	0.009817961
129	0xbc8e2427	-0.017351223
130	0xbc9b9425	-0.01899154
131	0x3d153dcf	0.0364359
132	0xbcd897d4	-0.026439585
133	0xbc380ef4	-0.011234034
134	0xbba92e0b	-0.0051629595
135	0x3bff0d38	0.007783558
136	0x3cd64f65	0.026160905
137	0x3c545ae1	0.01296112
138	0x3b9e28d7	0.004826646
139	0xbc99da77	-0.01878093
140	0xbc085958	-0.008322082
141	0x3ccdb165	0.025109002
142	0x3caf15dc	0.021372728
143	0xbcd80134	-0.026367761
144	0xbbde4239	-0.0067827967
145	0x3ac9d446	0.0015398345
146	0x3b4451c4	0.0029955963
147	0xbc247072	-0.010036575
148	0xba6c12ad	-0.00090054685
149	0x3c929019	0.017890977
150	0xbc88dc25	-0.016706536
151	0x3d0951bc	0.033525214
152	0xba59e7fc	-0.00083124614
153	0x3cb5acc5	0.02217711
154	0xbcfaf04e	-0.030632164
155	0x3cb72e6c	0.022361003
156	0x3c88ac29	0.016683655
157	0xbce228be	-0.027607318
158	0x3cc0cf6a	0.023536403
159	0xbd0bf6e1	-0.03417099
160	0xbcef87e9	-0.029239612
161	0x3d1bded1	0.03805429
162	0x3d49fe6e	0.04931491
163	0xbc97deff	-0.01853895
164	0xbc0ca1aa	-0.008583466
165	0x3c9022bd	0.01759469
166	0xbd18777e	-0.03722333
167	0x3ce0c11c	0.027435832
168	0xb8543b43	-5.059993e-05
169	0x3ca55e25	0.020186493
170	0xbc72b20a	-0.014812956
171	0xba14883e	-0.00056660536
172	0xbd3c55c8	-0.045980245
173	0x3d4d5555	0.050130207
174	0xbcc66497	-0.024217887
175	0xbbb7745e	-0.005598589
176	0xba7d2ef0	-0.00096581783
177	0xbd01ec1f	-0.031719323
178	0x3ce0979e	0.027416047
179	0x3b527ac5	0.0032116633
180	0x3c8726ef	0.016498057
181	0xbcbc2ec1	-0.022971513
182	0x3ccb0d1d	0.024786526
183	0xbd0726eb	-0.0329961
184	0xbc8670c8	-0.0164112
185	0x3c6561c4	0.01400036
186	0x3b9e92be	0.0048392704
187	0xbc78d21e	-0.015186815
188	0x3d67c288	0.056582004
189	0xbcb2a880	-0.021808863
190	0xbbcb54a4	-0.0062051583
191	0xbbc99657	-0.006151955
192	0x3c91b1ed	0.017785037
193	0xbd347fb9	-0.04406712
194	0x3c40fea3	0.01177946
195	0x3b19cbd5	0.002346744
196	0xbd8a723f	-0.06760072
197	0x3d8fc86d	0.0702065
198	0x3c7ca5e6	0.015420413
199	0xbcb5f2c4	-0.022210486
200	0x3c7378f2	0.014860379
201	0xbcea95eb	-0.02863594
202	0x3cd6c507	0.026216997
203	0xbc893347	-0.016748084
204	0xbc07630f	-0.0082633635
205	0x3ca25484	0.01981569
206	0x3b3acf09	0.002850475
207	0x3c999b73	0.018750882
208	0x3aea764d	0.001788804
209	0x3c3c2695	0.011483808
210	0xbb9e77db	-0.004836065
211	0xbc884f59	-0.016639398
212	0x3a9d2bcc	0.0011991202
213	0x3d0b37f9	0.033988927
214	0x3c3b6c13	0.011439341
215	0xbca468da	-0.020069528
216	0x3c5a0504	0.01330686
217	0xbc22b5cf	-0.009931042
218	0xbb99213e	-0.004673152
219	0xbc29f484	-0.0103732385
220	0xb85658d9	-5.110432e-05
221	0x3c187ce4	0.00930712
222	0x3c1a54e1	0.009419651
223	0xbc933d9e	-0.017973717
224	0xbd3e2f9f	-0.046432134
225	0x3cbd7b04	0.023129947
226	0x3c646caf	0.013941928
227	0xbcc859b1	-0.02445683
228	0xbcb99811	-0.022655519
229	0x3c29b38f	0.0103577515
230	0x3c8885de	0.016665395
231	0x3c928f4c	0.017890595
232	0x39f05096	0.00045836408
233	0x39bb5898	0.00035733427
234	0xbc53acf0	-0.0129196495
235	0x3c1e35ec	0.009656411
236	0xbbdef3ca	-0.0068039643
237	0x3cc79bc6	0.02436627
238	0xbc1fc4bc	-0.009751495
239	0x3cb0e21a	0.021592189
240	0xbc972a4c	-0.018452786
241	0x3d048f40	0.032363176
242	0xbd35c3dc	-0.04437624
243	0x3bfdcebf	0.0077455933
244	0xbd07c7cd	-0.03314953
245	0x3d4059f0	0.04696077
246	0x3cb33401	0.021875383
247	0xb99ff793	-0.000305113
248	0xbca5e0f4	-0.020248868
249	0x3ce90f54	0.028449692
250	0xbcc696f6	-0.024241906
251	0x3d16d077	0.0368199
252	0xbcfd22d0	-0.030900389
253	0x3d051e21	0.032499436
254	0x3b030caa	0.0019996562
255	0xbca52d47	-0.020163191

base_model.model.transformer.h.11.attn.c_attn.lora_A.weight f4 [2, 768]
0	0xbc8dfba7	-0.017331911
1	0x3cdcf976	0.026974421
2	0x3d635b67	0.05550709
3	0xbd8881ac	-0.06665358
4	0x3d0e7c8b	0.034786742
5	0x3dae2d96	0.085047886
6	0xbbacda30	-0.0052750334
7	0x3caf4211	0.021393808
8	0x3bad51b2	0.00528928
9	0x3db00bd3	0.08596005
10	0x3d28d7cf	0.041221436
11	0xbb7b00e9	-0.0038300103
12	0xbd7cf8c1	-0.061760668
13	0x3ca103e6	0.01965518
14	0xbcceee05	-0.025259981
15	0xbd4ea519	-0.05045042
16	0x3d229772	0.03969521
17	0xbd55fc7c	-0.05224274
18	0x3cd6b2b9	0.026208268
19	0xbb88fd82	-0.004180611
20	0xbd9053dc	-0.07047245
21	0xbd150c28	-0.036388546
22	0xbd55b9dd	-0.052179206
23	0xbd1e5a43	-0.0386603
24	0x3c974427	0.018465115
25	0x3c840930	0.016117662
26	0xbc65dca0	-0.014029652
27	0xbc463a75	-0.012098898
28	0xbceb0c82	-0.028692488
29	0x3c64551c	0.013936307
30	0xbceb7259	-0.028741049
31	0xbc7b8af3	-0.015352952
32	0xb96c31e5	-0.00022525301
33	0x3b22a1b8	0.002481563
34	0x3cadcfe0	0.021217287
35	0x3be65ef3	0.007030362
36	0xbc27e7b8	-0.010248117
37	0x3d93412e	0.071901664
38	0xbb296cce	-0.0025852206
39	0x3c868e73	0.016425347
40	0x3b103c27	0.002200851
41	0xbd26afe0	-0.04069507
42	0xbcc5dcbf	-0.024153112
43	0xbc82024e	-0.01587024
44	0x3ca3af74	0.019981124
45	0x3d6d3ee5	0.05792131
46	0xbc1aed57	-0.009456
47	0xbc1d4533	-0.009599018
48	0xbce25b58	-0.027631447
49	0xbd10e65d	-0.03537594
50	0x3b97ba2f	0.004630349
51	0xbc832656	-0.016009491
52	0xbc71beea	-0.01475499
53	0xbd735c28	-0.05941406
54	0x3d405d1c	0.046963796
55	0xbcd11070	-0.025520533
56	0xbca36afb	-0.019948473
57	0xbca0b2d2	-0.019616518
58	0xbd47e632	-0.048803516
59	0xbcab2975	-0.020893792
60	0xbc57905e	-0.013156978
61	0xbd0ea69d	-0.034826864
62	0xbcaafdb5	-0.02087293
63	0xbc83b08b	-0.016075393
64	0xbba77cd5	-0.0051113167
65	0x3c8cd241	0.0171901
66	0xbccd124e	-0.025033142
67	0x3bf4f9b9	0.0074760583
68	0x3db11607	0.086467795
69	0x3cbc14cd	0.022959137
70	0xbc6d86ad	-0.014497441
71	0xbd3a26f6	-0.045447312
72	0x3c40000a	0.011718759
73	0xbca9361a	-0.02065568
74	0x3c64e961	0.0139716575
75	0x3d00a829	0.03141037
76	0x3d2356b1	0.039877597
77	0xbbfce4dc	-0.007717712
78	0xbcd86c54	-0.026418842
79	0xbabce58d	-0.0014411673
80	0xb963daf2	-0.0002172997
81	0x3ce46b2b	0.027883133
82	0xbcbc966d	-0.023020947
83	0xbd5c6658	-0.05380854
84	0xbd870f99	-0.06594772
85	0x3b537fd4	0.0032272236
86	0xbd5ae97a	-0.053445317
87	0x3b5df7db	0.0033869657
88	0x3b86049e	0.004089906
89	0xbd76c98d	-0.060250808
90	0x3d4c16d0	0.049826443
91	0xbd2193c9	-0.03944758
92	0xbc1b6b19	-0.009485983
93	0x3c779cd0	0.015113071
94	0x3c80fa2c	0.015744291
95	0xbce58b60	-0.02802056
96	0x3cb67d6f	0.022276608
97	0x3d19d0d2	0.037552662
98	0x3d3d40ab	0.04620425
99	0x3c499e32	0.012305783
100	0x3cd764b1	0.02629313
101	0x3c23e03c	0.010002192
102	0xbd24a68a	-0.040197887
103	0xbc938c27	-0.018011166
104	0x3cca21b2	0.02467427
105	0xbcae19be	-0.02125251
106	0x3d2161c9	0.039399896
107	0xbd6737f9	-0.056449864
108	0x3a8d01e9	0.0010758016
109	0xbd0ce2e9	-0.034396086
110	0x3d913c11	0.07091535
111	0x3d5e25ea	0.054235376
112	0x3c86d051	0.016456755
113	0xbd49bad2	-0.04925043
114	0xbd8519f9	-0.064990945
115	0xbc3d44f0	-0.0115520805
116	0x3cbf26fb	0.023334017
117	0xbd2a5505	-0.041584987
118	0xbca6ba82	-0.020352606
119	0x3c9d3bb3	0.019193506
120	0x3d03612d	0.032075096
121	0x3c7b5f12	0.015342491
122	0xbd504285	-0.050844688
123	0xbcb6c9dd	-0.022313053
124	0x3c2d5b7e	0.0105808955
125	0xbb7a5b43	-0.003820137
126	0x3d07ea02	0.03318215
127	0xbc94ed15	-0.018179456
128	0x3d5c4645	0.05377795
129	0x3cac5a3b	0.021039119
130	0xbc46d524	-0.012135778
131	0xbc93d300	-0.018044949
132	0x3c267b9b	0.010161306
133	0x3d6dff22	0.05810464
134	0x3d5e244f	0.054233845
135	0xbd230c6a	-0.03980676
136	0xbd004d69	-0.031323824
137	0x3c4e590a	0.012594471
138	0x3d76b3b1	0.06022996
139	0xbd9b9345	-0.07596449
140	0x3d28a476	0.041172467
141	0xbd295574	-0.04134126
142	0xbc6214d7	-0.013798914
143	0x3c4bf327	0.012448109
144	0xbc26784d	-0.010160518
145	0x3d6e4034	0.058166698
146	0x3c8a032f	0.016847221
147	0x3c86e78c	0.016467832
148	0xbd104a36	-0.035227023
149	0x3cda36f6	0.026637536
150	0xbc32ba4f	-0.010908677
151	0xbd3e0640	-0.04639268
152	0x3c222e85	0.009898786
153	0x3d0f0e10	0.03492552
154	0xbc82ebdf	-0.015981613
155	0x3c5f3dcd	0.013625574
156	0xbc5c03b2	-0.013428615
157	0xbd869b69	-0.06572611
158	0x3af502e4	0.0018692878
159	0x3cb26fdd	0.021781856
160	0xbd72f180	-0.059312344
161	0x3cbe2b98	0.023214146
162	0x3c1e50f8	0.009662859
163	0x3cdfff72	0.027343486
164	0x3d716be1	0.058940772
165	0xbd80fe58	-0.06298512
166	0xbc300773	-0.0107439635
167	0x3c2de74b	0.010614227
168	0xbcc022d2	-0.023454104
169	0x3c97da77	0.01853679
170	0x3cede2f0	0.029038876
171	0xbd1f837b	-0.03894375
172	0xbd70afc7	-0.058761384
173	0xbc9282e9	-0.017884688
174	0x3d50f624	0.051015988
175	0x3d60ae66	0.05485382
176	0x3d40a749	0.047034536
177	0xbb9a1649	-0.0047023636
178	0x3d31fbea	0.043453135
179	0xbc4f6c56	-0.012660107
180	0x3b20988e	0.0024504992
181	0x3d08bdf2	0.03338427
182	0xbc1fff1e	-0.0097654145
183	0x3cd2835d	0.025697405
184	0x3cb3a0ba	0.021927226
185	0xbd52b454	-0.051441506
186	0xbd3aeb82	-0.045634754
187	0xbd3941b2	-0.045228668
188	0x3d157cd1	0.036495987
189	0xbc87ac90	-0.016561776
190	0xbc7d0be1	-0.015444727
191	0xbd276eca	-0.04087714
192	0x3d315ab6	0.0432994
193	0x3d3f95bd	0.04677366
194	0xbd542cc2	-0.051800497
195	0x3cf88af3	0.030339694
196	0xbc10d275	-0.008839239
197	0x3ce570df	0.028007923
198	0x3c4c81c4	0.01248211
199	0xbcc007bf	-0.023441194
200	0xbcb8fe85	-0.022582302
201	0x3c0b95d2	0.008519607
202	0xbc780fec	-0.015140515
203	0xbcc619b7	-0.024182184
204	0xbc00b257	-0.0078550195
205	0x3d57a62a	0.0526487
206	0x3cc2be25	0.023772309
207	0xbc7a6736	-0.0152833965
208	0xbd877229	-0.06613571
209	0x3d18dce8	0.037320048
210	0xbbc764fb	-0.006085036
211	0x3d2e6638	0.042577952
212	0xbbaa4d47	-0.0051972005
213	0xbc972cd7	-0.018453998
214	0x3dbfb014	0.09359756
215	0xbc78c000	-0.015182495
216	0x3db7ad0c	0.08968553
217	0xbc0f2358	-0.008736454
218	0x3d5153a5	0.05110516
219	0x3c5bcf4f	0.013416125
220	0x3d5cbb04	0.05388929
221	0x3ce76046	0.028244149
222	0x3c5bc32e	0.013413234
223	0xbc7228d8	-0.014780246
224	0xbd7e09b1	-0.06202096
225	0x3b1bf282	0.002379567
226	0x3d1c8eb1	0.03822202
227	0xbd09c1e0	-0.03363216
228	0x3cb06b12	0.02153543
229	0xbcc03bf4	-0.023466088
230	0x3cffad65	0.03121061
231	0xbd577e55	-0.052610714
232	0xbd0e597d	-0.03475331
233	0x3c8cd5bf	0.017191766
234	0xbd249ace	-0.040186696
235	0xbd234971	-0.03986496
236	0x3d2c5965	0.04207744
237	0xbc007c4d	-0.007842136
238	0x3cc945ff	0.02456951
239	0xbd3c621d	-0.045992006
240	0xbc7dddf5	-0.015494813
241	0xbcfe0512	-0.031008277
242	0xbd237e05	-0.039915103
243	0xbd8cadc8	-0.06869084
244	0x3aac0fd3	0.0013127275
245	0x3ca58ae4	0.02020783
246	0xbac2f5e2	-0.0014874304
247	0xbd876a27	-0.06612044
248	0xbcddb44d	-0.027063513
249	0x3c8ad49d	0.016947085
250	0x3d1644bd	0.036686648
251	0xbca4500c	-0.0200577
252	0xb8ca9bdf	-9.661144e-05
253	0x3d4ab456	0.049488388
254	0xbc1b0efd	-0.009464023
255	0xbc48a426	-0.012246167
