gpt_lora_climate_sentiment/adapter_model.safetensors (safetensors, 592848 bytes, 24 tensors)

base_model.model.transformer.h.0.attn.c_attn.lora_A.weight f4 [4, 768]
000000 23 6a 9e 3c d9 1a 4b bc be df 0c bd 2e 41 2a bc
       0.01933772 -0.012396538 -0.034393065 -0.010391517
000010 d0 43 a3 bc aa cb 9f 3c db a9 b9 bb 0c 2a b3 bc
       -0.019929796 0.019506294 -0.0056660003 -0.021870635
000020 31 a9 71 bc 81 c8 02 bc c8 3c e2 3c a0 09 57 3b
       -0.014749811 -0.007982374 0.027616873 0.0032812133
000030 b1 ee e9 bc 3c 13 19 bc 31 35 08 3d 90 96 fc bc
       -0.0285562 -0.009342965 0.033253852 -0.030833513
000040 89 ae 5d bc ba be 00 3d ba 71 6e bc 94 29 e1 3c
       -0.013530382 0.03143189 -0.014553482 0.027485646
000050 36 96 c1 bc 82 c2 df 3c 0c 55 c3 3c de 0b dd bb
       -0.023631196 0.027314428 0.023844264 -0.0067457994
000060 e5 19 09 bd 22 f8 47 bc 44 11 14 3c 47 01 46 bc
       -0.03347196 -0.012205156 0.00903732 -0.0120852655
000070 a5 eb eb bc 96 a2 02 bd 07 c2 8c 3c 68 15 d5 3c
       -0.028798888 -0.031893335 0.017182363 0.026011184
000080 0c ee 5f bc bd bf b4 3a 40 f4 b4 bc 89 ad aa 3c
       -0.013667595 0.0013790053 -0.022089124 0.020834701
000090 a3 3f c2 bc 6c a6 a7 bc ea b7 70 bc 92 23 d9 bb
       -0.023711985 -0.020465098 -0.014692286 -0.0066265548
0000a0 2c 1f 92 3b 1f 55 0b bd eb 35 58 bc f7 4a 80 bc
       0.0044592824 -0.034016725 -0.013196449 -0.015660746
0000b0 0e 30 f0 bb 46 a0 06 bb bf 9c dd 3a 62 f0 96 3c
       -0.0073299473 -0.0020542308 0.0016907676 0.01842517
0000c0 01 4a a8 bc 7a 62 4e 3a ab 50 06 3d 89 ac 97 3b
       -0.0205431 0.00078729505 0.032791775 0.004628722
0000d0 10 97 db bc 18 54 ca 3c ad 29 03 bd 4c 49 70 3c
       -0.02680543 0.024698302 -0.032022167 0.014665913
0000e0 5a bb f4 3c 00 31 94 3b a1 8e 9e 3c fe 8f ea 3c
       0.029874492 0.004522443 0.01935512 0.028633114
0000f0 27 fa 86 3c 4a 9b 31 bc 9b 8c 00 3c a4 16 ef 3c
       0.016476704 -0.010840246 0.007846023 0.0291856
000100 46 9e 0a 3c 73 ee ea bc a7 9c 00 3d 38 3c 0f 3d
       0.008460587 -0.028678155 0.031399395 0.03496954
000110 fb 89 ab 3c 5f b3 a0 3c 48 15 a6 3c d9 79 b3 bc
       0.020939818 0.01961678 0.02027382 -0.021908687
000120 be 73 31 bc 05 86 7f 3c fd 92 16 3c 08 3b 7b 3c
       -0.010830818 0.015595918 0.009190318 0.015333898
000130 5f 08 33 ba 92 6f 0e bd 72 1d 8c 3c 71 ee b9 bc
       -0.00068295555 -0.03477437 0.017103884 -0.022696706
000140 3e 47 f4 bc 76 2a 12 3d 58 4f 82 3c d5 e8 92 3c
       -0.029819127 0.035685025 0.015906975 0.017933289
000150 57 83 81 bc 9b dd 59 3c 6f fb 48 3b 7f a2 c9 3c
       -0.015809698 0.013297464 0.0030667444 0.024613617
000160 91 50 8a 3b 2b 1a 04 3d b6 78 0a bc 96 64 08 3d
       0.00422103 0.03225152 -0.008451631 0.03329905
000170 8c 60 12 3d 26 db 8b 3b d9 bb d8 bc 0f 13 6d 37
       0.035736606 0.004268068 -0.02645676 1.4130738e-05
000180 02 4c eb 3c aa f6 c9 bc a3 49 53 bc 7e c8 55 3c
       0.028722767 -0.024653751 -0.012895974 0.013048289
000190 85 41 f0 3b 94 f0 0a 3d 5f c1 c2 3b 05 ad 90 b9
       0.0073320293 0.03392084 0.005943462 -0.0002759473
0001a0 b7 66 9b 3b 5b 36 f3 bb 4c 11 08 bd f0 5c 4f bc
       0.004742469 -0.007422251 -0.03321962 -0.012656435
0001b0 b4 fb 05 bd cd 49 d8 3c 7b 15 0f 3b 70 ae 89 3b
       -0.032710746 0.026402378 0.0021832872 0.004201703
0001c0 ba 1f 24 bb 2b ac 97 bc 46 8b d0 bc ac fb b4 bb
       -0.0025043325 -0.018514713 -0.025457036 -0.0055231657
0001d0 77 e0 32 3c cf c3 a1 bc 3e e2 b6 bc f0 0d c0 3c
       0.010917774 -0.01974669 -0.022324678 0.023444146
0001e0 f6 44 4d bc 64 89 a6 3c be 7e 0d 3d 74 eb 0a 3d
       -0.012528649 0.020329185 0.0345447 0.03391595
0001f0 78 8c e4 bc 80 68 2f 3b ce c8 e7 bc da 35 c3 3a
       -0.027899012 0.0026765168 -0.028293993 0.0014893368
000200 0a 6f a4 3b 88 e3 7f bc 71 79 2f 3c 97 56 39 bc
       0.0050181197 -0.0156182125 0.010710106 -0.0113121485
000210 d2 8b a6 3c 47 5b b4 39 5d 2f cd 3c 53 cc c7 3c
       0.020330343 0.00034400282 0.025046999 0.024389422
000220 a4 04 04 3c ed bd dc 3b 77 ca 85 bc 7d 34 c3 bc
       0.008057747 0.006736508 -0.016331894 -0.02382874
000230 35 4c c7 3c 0c 13 c3 3c 17 6d b9 3b 97 04 f8 3c
       0.02432833 0.023812793 0.0056587565 0.030275626
000240 34 59 9a 3c 0e 19 c1 3c 76 cb e2 bb 28 05 a9 3b
       0.018841363 0.023571517 -0.006921227 0.0051580854
000250 38 e3 04 bd 23 0c 07 bd 4a 8d 8c 3c 1a 30 b2 bc
       -0.032443255 -0.03297056 0.017157216 -0.021751452
000260 1e 23 e1 3c f4 85 ee bc 25 b5 f4 bc 49 a6 f2 bc
       0.027482565 -0.029116608 -0.029871533 -0.029620307
000270 3e b6 bd 3c b9 ef c3 bc 9d 80 fd bc f9 bc 79 3c
       0.023158189 -0.02391802 -0.030945117 0.0152428085
000280 d6 7f ee bb 4f c6 0c bd 0e a6 d1 3c ee 3e d6 3c
       -0.007278423 -0.03436881 0.025591876 0.026153054
000290 4c 1d ed 3c 71 8f b9 3c f8 2b e5 bc 5a 21 82 bc
       0.028944634 0.022651406 -0.027975067 -0.015885044
0002a0 23 56 68 bc 1d bd 0f bd 92 93 ce 3c 01 40 6f bc
       -0.014180693 -0.03509246 0.025216851 -0.014602662
0002b0 0e eb 4a 3c 8f 50 96 bc 86 72 04 3d b3 49 d0 3c
       0.012385143 -0.01834896 0.03233578 0.025425768
0002c0 6e 04 cc 3c ea ae 90 3c 68 70 f7 3c 72 4b 41 3c
       0.024904456 0.01766153 0.030204967 0.011797773
0002d0 53 0e ca 3b 78 4e 05 bc 04 35 f0 3c 83 9d 0e bd
       0.0061662584 -0.008136384 0.029322155 -0.034818184
0002e0 f7 1e d3 3c cc c0 5f bb a2 8d 1c bb a4 55 c2 bc
       0.025771601 -0.0034142016 -0.002388813 -0.023722477
0002f0 ce 3d 81 bc d2 0a df 3b f8 e8 70 bc f6 78 52 3c
       -0.015776541 0.00680671 -0.014703982 0.012846222
000300 d6 92 a6 3b 5c a2 fb bc 7d 8f a1 3c 02 27 82 bc
       0.005083422 -0.030717067 0.01972174 -0.015887741
000310 d8 9a 55 bc 08 96 59 bc 7a 98 69 3c e8 bd 11 bd
       -0.013037406 -0.013280399 0.014257545 -0.0355815
000320 b7 08 d5 bc 93 ec 6d 3c 03 22 33 bc a5 5c e0 bb
       -0.026005132 0.014521736 -0.010933402 -0.0068469816
000330 36 cc 04 bd d9 d2 6f 3b 97 1e 8b 3c 81 66 55 bc
       -0.032421313 0.003659418 0.01698236 -0.013024927
000340 70 be 34 3b 32 22 86 3a e2 60 fa bb b4 6d ee 3c
       0.002757933 0.001023358 -0.007640944 0.029105045
000350 4f 3f 18 3c 6f be e0 3b 00 1e 93 ba 88 3e 46 ba
       0.009292438 0.006858639 -0.0011224151 -0.00075624185
000360 18 bc 9e 3c d4 01 08 3b 62 c8 05 3c 25 e6 ef 3c
       0.0193768 0.0020753043 0.008165451 0.029284546
000370 1e 02 d1 3c 83 f7 58 bc 03 0e f2 bc f6 b7 1b 3c
       0.025513705 -0.013242605 -0.029547697 0.009504309
000380 43 e5 c9 bc 9d fe 12 bd 12 fd ca 3c 48 00 f5 bc
       -0.024645453 -0.03588735 0.024778876 -0.02990736
000390 9c e2 11 3d 01 2a 08 bd 1c b1 f0 bc b5 f3 a9 3c
       0.035616502 -0.033243183 -0.029381327 0.020746091
0003a0 d5 78 36 3b 4a d7 80 bc b0 67 60 3c e1 0f c0 bc
       0.0027843018 -0.015727658 0.013696596 -0.023445072
0003b0 15 ee a2 bc 20 57 0e bd d1 6a 97 bc 0c e6 fd bc
       -0.019888917 -0.034751058 -0.018483551 -0.030993484
0003c0 52 4c fd 3c 79 81 80 bc de 9d c8 3b 0c dd 84 bc
       0.030920181 -0.015686737 0.006122335 -0.016218685
0003d0 ff 71 07 bc 3c f1 d7 3c 52 a4 f0 3b 0b b9 8e 3c
       -0.008266925 0.026360147 0.0073438073 0.01742222
0003e0 81 2c 41 3c 2e ec f0 bc b6 86 b1 3c 1e 81 ef 3c
       0.011790396 -0.029409494 0.02167068 0.029236373
0003f0 5a af 30 3c cd 79 eb 3c f5 d8 8c bc 70 67 c1 bc
       0.010783995 0.028744603 -0.017193297 -0.023608893

base_model.model.transformer.h.0.attn.c_attn.lora_B.weight f4 [2304, 4]
000000 00 00 00 00 00 00 00 00 00 00 00 00 00 00 00 00
       0.0 0.0 0.0 0.0
000010 00 00 00 00 00 00 00 00 00 00 00 00 00 00 00 00
       0.0 0.0 0.0 0.0
000020 00 00 00 00 00 00 00 00 00 00 00 00 00 00 00 00
       0.0 0.0 0.0 0.0
000030 00 00 00 00 00 00 00 00 00 00 00 00 00 00 00 00
       0.0 0.0 0.0 0.0
000040 00 00 00 00 00 00 00 00 00 00 00 00 00 00 00 00
       0.0 0.0 0.0 0.0
000050 00 00 00 00 00 00 00 00 00 00 00 00 00 00 00 00
       0.0 0.0 0.0 0.0
000060 00 00 00 00 00 00 00 00 00 00 00 00 00 00 00 00
       0.0 0.0 0.0 0.0
000070 00 00 00 00 00 00 00 00 00 00 00 00 00 00 00 00
       0.0 0.0 0.0 0.0
000080 00 00 00 00 00 00 00 00 00 00 00 00 00 00 00 00
       0.0 0.0 0.0 0.0
000090 00 00 00 00 00 00 00 00 00 00 00 00 00 00 00 00
       0.0 0.0 0.0 0.0
0000a0 00 00 00 00 00 00 00 00 00 00 00 00 00 00 00 00
       0.0 0.0 0.0 0.0
0000b0 00 00 00 00 00 00 00 00 00 00 00 00 00 00 00 00
       0.0 0.0 0.0 0.0
0000c0 00 00 00 00 00 00 00 00 00 00 00 00 00 00 00 00
       0.0 0.0 0.0 0.0
0000d0 00 00 00 00 00 00 00 00 00 00 00 00 00 00 00 00
       0.0 0.0 0.0 0.0
0000e0 00 00 00 00 00 00 00 00 00 00 00 00 00 00 00 00
       0.0 0.0 0.0 0.0
0000f0 00 00 00 00 00 00 00 00 00 00 00 00 00 00 00 00
       0.0 0.0 0.0 0.0
000100 00 00 00 00 00 00 00 00 00 00 00 00 00 00 00 00
       0.0 0.0 0.0 0.0
000110 00 00 00 00 00 00 00 00 00 00 00 00 00 00 00 00
       0.0 0.0 0.0 0.0
000120 00 00 00 00 00 00 00 00 00 00 00 00 00 00 00 00
       0.0 0.0 0.0 0.0
000130 00 00 00 00 00 00 00 00 00 00 00 00 00 00 00 00
       0.0 0.0 0.0 0.0
000140 00 00 00 00 00 00 00 00 00 00 00 00 00 00 00 00
       0.0 0.0 0.0 0.0
000150 00 00 00 00 00 00 00 00 00 00 00 00 00 00 00 00
       0.0 0.0 0.0 0.0
000160 00 00 00 00 00 00 00 00 00 00 00 00 00 00 00 00
       0.0 0.0 0.0 0.0
000170 00 00 00 00 00 00 00 00 00 00 00 00 00 00 00 00
       0.0 0.0 0.0 0.0
000180 00 00 00 00 00 00 00 00 00 00 00 00 00 00 00 00
       0.0 0.0 0.0 0.0
000190 00 00 00 00 00 00 00 00 00 00 00 00 00 00 00 00
       0.0 0.0 0.0 0.0
0001a0 00 00 00 00 00 00 00 00 00 00 00 00 00 00 00 00
       0.0 0.0 0.0 0.0
0001b0 00 00 00 00 00 00 00 00 00 00 00 00 00 00 00 00
       0.0 0.0 0.0 0.0
0001c0 00 00 00 00 00 00 00 00 00 00 00 00 00 00 00 00
       0.0 0.0 0.0 0.0
0001d0 00 00 00 00 00 00 00 00 00 00 00 00 00 00 00 00
       0.0 0.0 0.0 0.0
0001e0 00 00 00 00 00 00 00 00 00 00 00 00 00 00 00 00
       0.0 0.0 0.0 0.0
0001f0 00 00 00 00 00 00 00 00 00 00 00 00 00 00 00 00
       0.0 0.0 0.0 0.0
000200 00 00 00 00 00 00 00 00 00 00 00 00 00 00 00 00
       0.0 0.0 0.0 0.0
000210 00 00 00 00 00 00 00 00 00 00 00 00 00 00 00 00
       0.0 0.0 0.0 0.0
000220 00 00 00 00 00 00 00 00 00 00 00 00 00 00 00 00
       0.0 0.0 0.0 0.0
000230 00 00 00 00 00 00 00 00 00 00 00 00 00 00 00 00
       0.0 0.0 0.0 0.0
000240 00 00 00 00 00 00 00 00 00 00 00 00 00 00 00 00
       0.0 0.0 0.0 0.0
000250 00 00 00 00 00 00 00 00 00 00 00 00 00 00 00 00
       0.0 0.0 0.0 0.0
000260 00 00 00 00 00 00 00 00 00 00 00 00 00 00 00 00
       0.0 0.0 0.0 0.0
000270 00 00 00 00 00 00 00 00 00 00 00 00 00 00 00 00
       0.0 0.0 0.0 0.0
000280 00 00 00 00 00 00 00 00 00 00 00 00 00 00 00 00
       0.0 0.0 0.0 0.0
000290 00 00 00 00 00 00 00 00 00 00 00 00 00 00 00 00
       0.0 0.0 0.0 0.0
0002a0 00 00 00 00 00 00 00 00 00 00 00 00 00 00 00 00
       0.0 0.0 0.0 0.0
0002b0 00 00 00 00 00 00 00 00 00 00 00 00 00 00 00 00
       0.0 0.0 0.0 0.0
0002c0 00 00 00 00 00 00 00 00 00 00 00 00 00 00 00 00
       0.0 0.0 0.0 0.0
0002d0 00 00 00 00 00 00 00 00 00 00 00 00 00 00 00 00
       0.0 0.0 0.0 0.0
0002e0 00 00 00 00 00 00 00 00 00 00 00 00 00 00 00 00
       0.0 0.0 0.0 0.0
0002f0 00 00 00 00 00 00 00 00 00 00 00 00 00 00 00 00
       0.0 0.0 0.0 0.0
000300 00 00 00 00 00 00 00 00 00 00 00 00 00 00 00 00
       0.0 0.0 0.0 0.0
000310 00 00 00 00 00 00 00 00 00 00 00 00 00 00 00 00
       0.0 0.0 0.0 0.0
000320 00 00 00 00 00 00 00 00 00 00 00 00 00 00 00 00
       0.0 0.0 0.0 0.0
000330 00 00 00 00 00 00 00 00 00 00 00 00 00 00 00 00
       0.0 0.0 0.0 0.0
000340 00 00 00 00 00 00 00 00 00 00 00 00 00 00 00 00
       0.0 0.0 0.0 0.0
000350 00 00 00 00 00 00 00 00 00 00 00 00 00 00 00 00
       0.0 0.0 0.0 0.0
000360 00 00 00 00 00 00 00 00 00 00 00 00 00 00 00 00
       0.0 0.0 0.0 0.0
000370 00 00 00 00 00 00 00 00 00 00 00 00 00 00 00 00
       0.0 0.0 0.0 0.0
000380 00 00 00 00 00 00 00 00 00 00 00 00 00 00 00 00
       0.0 0.0 0.0 0.0
000390 00 00 00 00 00 00 00 00 00 00 00 00 00 00 00 00
       0.0 0.0 0.0 0.0
0003a0 00 00 00 00 00 00 00 00 00 00 00 00 00 00 00 00
       0.0 0.0 0.0 0.0
0003b0 00 00 00 00 00 00 00 00 00 00 00 00 00 00 00 00
       0.0 0.0 0.0 0.0
0003c0 00 00 00 00 00 00 00 00 00 00 00 00 00 00 00 00
       0.0 0.0 0.0 0.0
0003d0 00 00 00 00 00 00 00 00 00 00 00 00 00 00 00 00
       0.0 0.0 0.0 0.0
0003e0 00 00 00 00 00 00 00 00 00 00 00 00 00 00 00 00
       0.0 0.0 0.0 0.0
0003f0 00 00 00 00 00 00 00 00 00 00 00 00 00 00 00 00
       0.0 0.0 0.0 0.0

base_model.model.transformer.h.1.attn.c_attn.lora_A.weight f4 [4, 768]
000000 37 44 0c 3d 93 1c 06 3d ca ed e8 3c c5 3d 9d bc
       0.034244742 0.032742094 0.0284337 -0.019194493
000010 32 8e 12 3d ed b1 e9 3c 99 04 03 bd 52 fa e8 bc
       0.03578014 0.028527224 -0.031986807 -0.028439675
000020 44 93 07 bd a6 e5 3d bc 3d 20 0c bd 3d 90 bd bc
       -0.033099428 -0.011590397 -0.034210432 -0.023140067
000030 35 3d bb bc 96 b3 0b 3d 8a 86 7d bc 41 e0 6c bb
       -0.022856334 0.034106813 -0.015473971 -0.0036144408
000040 b5 cd e4 3c 29 8b e4 3b 11 9c ce 3a 18 7f 52 bc
       0.02793012 0.006974597 0.0015763064 -0.012847684
000050 05 7e dc 3c 69 98 e2 bc df 43 48 3c 98 00 c9 3b
       0.02691556 -0.027660565 0.012223213 0.006134104
000060 74 c5 af 3c 17 e4 b4 bc a5 e1 b2 3c 8c 38 a6 3c
       0.021456458 -0.022081418 0.021836111 0.020290636
000070 af 51 ed bc 16 f5 0d 3d 18 3c 8f bb c6 d5 b3 3c
       -0.028969614 0.03465756 -0.0043711774 0.021952521
000080 ad 20 8f bc 86 4c 21 3b 29 fb db bc 14 55 bd bc
       -0.017471636 0.0024612262 -0.026853161 -0.023111857
000090 22 e4 3b 3b 77 59 8d 3c 0f 1f 02 3d 0c c4 12 bd
       0.0028669913 0.017254574 0.0317679 -0.035831496
0000a0 11 db af 3c 32 c4 51 3c ee d3 0b 3d 4c 95 49 ba
       0.021466764 0.012803124 0.03413766 -0.00076897885
0000b0 9a 4b 03 bb ba 59 11 bd 64 73 a6 3c d6 e1 9d bb
       -0.0020034076 -0.03548596 0.020318694 -0.0048181815
0000c0 39 37 2c bc 25 3b 01 bc fc 88 c7 bc 2c 08 32 bc
       -0.010511213 -0.007887636 -0.024357311 -0.010866206
0000d0 e7 b6 25 3c 11 9f ba 3c ca 8c d0 bc ed 6a 09 bd
       0.010114408 0.022780927 -0.025457758 -0.033549238
0000e0 fc cf c0 3b a3 e6 f4 3c 04 65 f7 38 07 f2 bf bb
       0.0058841687 0.029895132 0.000117966934 -0.0058577093
0000f0 06 8d a1 bc d3 c6 98 bb 94 2f a7 bc 74 4a 9d 3c
       -0.019720566 -0.0046623736 -0.02040843 0.019200541
000100 8f 21 9a 3a 3b 09 40 bb 9c 1d 83 bc b0 fc 9f 3c
       0.0011759269 -0.0029302377 -0.01600533 0.01952967
000110 fa 79 01 bd af 23 f6 3c 85 ac 7d bc e1 db a3 bc
       -0.031610467 0.030046312 -0.015483026 -0.020002307
000120 13 6c 35 3a 36 a1 11 3d 66 70 76 bc a2 70 b8 3c
       0.00069207064 0.035554133 -0.015041446 0.022514645
000130 ab c9 70 bb b9 8b e7 bc b9 3e bf ba 4f 65 35 3c
       -0.0036741297 -0.028264867 -0.0014590836 0.011071517
000140 80 fc bd 3c 09 0d ef bb 07 27 a6 bc 23 db 2e bc
       0.02319169 -0.007295255 -0.020282282 -0.010672363
000150 4f bd a3 3c b0 aa 54 3b 48 80 66 bc 12 d3 76 3c
       0.01998773 0.003245037 -0.014068671 0.0150649715
000160 1c 5b c3 bc 9f 60 9f 3b 1f c4 35 3c e7 60 45 3b
       -0.023847155 0.004863813 0.011094122 0.0030117573
000170 bd c7 cc 3c 52 73 06 bd 03 2d 05 3d 2f 0d 13 3c
       0.024997586 -0.03282482 0.03251363 0.008975311
000180 d2 77 03 bd b2 de e2 ba 18 28 e7 bc b4 b2 90 bc
       -0.03209669 -0.00173088 -0.02821736 -0.017663337
000190 ca 12 a3 3b a2 81 b2 3b a6 92 f2 bc d5 51 fe 3c
       0.004976605 0.0054475823 -0.029610943 0.03104488
0001a0 d0 3c 28 bb bf 54 7f 3c e6 e1 59 bc ec 00 68 3c
       -0.0025671013 0.01558417 -0.013298487 0.014160376
0001b0 64 a1 37 bc 2e ed d5 3c 39 4f ae 3b dc e7 94 bc
       -0.011207912 0.026114073 0.0053195027 -0.018176965
0001c0 7b 89 af b9 09 d4 a7 bc ca 0d eb 3c 4f 65 d9 bc
       -0.00033481032 -0.020486848 0.028693099 -0.026537566
0001d0 3c a7 8e bc a1 4a ae 3c db de c8 39 09 b0 95 3c
       -0.017413728 0.02127582 0.00038313013 0.018272417
0001e0 68 ed 89 bb 1a 84 df 3c 2d 04 09 bc e6 1b 85 3b
       -0.0042092092 0.02728467 -0.008362812 0.0040621636
0001f0 3b 1c b5 3c af 03 4d 3c 62 29 5c 3c dd 76 98 3c
       0.022108188 0.012513085 0.013437601 0.018611366
000200 ba 9a 12 bd 5b 2c 02 3d 41 be af 3c 7a 24 df bb
       -0.03579209 0.031780582 0.021453025 -0.0068097683
000210 be 42 39 bc 48 8e a3 bc 8f a7 80 3b 13 c5 8a 3c
       -0.0113074165 -0.019965306 0.0039262245 0.016939675
000220 ee f0 5b bc fd c6 30 bc 15 c2 9c 3c 09 80 d7 bc
       -0.013424141 -0.01078963 0.019135514 -0.02630617
000230 2e bf b9 bb 18 ec e8 3c cf a1 87 3b 2f de ce 3c
       -0.0056685423 0.02843289 0.004139162 0.02525243
000240 6e 66 4f bb f7 b3 0d 3d 53 ee 93 bc 2a 2e 10 bd
       -0.0031646746 0.034595456 -0.018057978 -0.035200275
000250 94 cc 79 bc 64 4c 17 bc 2d 91 24 bc 4e d3 c2 bb
       -0.015246529 -0.009234522 -0.010044378 -0.0059455996
000260 1e 85 9c 3b e1 b3 5f 3c 28 63 0b bd f6 c1 89 bb
       0.004776611 0.013653726 -0.03403011 -0.00420403
000270 0b 40 42 3a 71 86 70 3c a8 91 11 3d 4b 18 bd bc
       0.0007410056 0.014680491 0.0355393 -0.023082873
000280 e3 b6 81 bc ad 61 07 bd 86 7d c3 bc 1b a9 88 bc
       -0.015834277 -0.033052135 -0.023863565 -0.016682198
000290 04 c7 f2 bc 2d fd 89 3c 67 22 84 bc 8b f6 06 bd
       -0.029635914 0.016844356 -0.016129686 -0.032949965
0002a0 95 d6 1e 3c 71 33 7f 3c 32 88 2a 3b bb ae 8b 3b
       0.009694715 0.015576229 0.002602112 0.004262773
0002b0 08 b5 2a bc 0f 61 a7 3c 17 e7 a1 bc 38 ac 53 bc
       -0.010419138 0.020432023 -0.019763513 -0.012919478
0002c0 0d 07 e0 bc 44 65 cd bc 83 99 12 3d 41 b0 4b 3c
       -0.027347112 -0.025072701 0.03579093 0.012432159
0002d0 f4 18 49 3b 9a 54 03 bd 58 44 e3 3c 38 f5 d3 bc
       0.003068504 -0.032063104 0.02774255 -0.025873765
0002e0 e3 94 02 bc 7b 47 14 3b 5d b3 54 bc 43 8b 8d 3b
       -0.007970068 0.0022625613 -0.012982217 0.00431958
0002f0 60 ee 99 bc 64 29 f4 3c 1a 31 f0 bc 54 d0 06 3d
       -0.018790424 0.029804893 -0.029320288 0.03291352
000300 03 7c 3b 3c 60 8e 84 bc 5a fb c5 3c af 4c 85 bb
       0.011443141 -0.016181171 0.024167705 -0.0040679793
000310 8c 15 36 bc 31 e6 0c 3d 21 0e 0a 3d 5e 8c c9 bc
       -0.011113536 0.034399215 0.03370488 -0.024603065
000320 28 71 a9 bc 7f f4 c6 3c c4 b7 e1 3c 11 92 14 3c
       -0.02068384 0.024286507 0.027553447 0.009068028
000330 9b 09 d2 bb 56 a2 cc bc 73 d1 48 3c 15 fb a2 ba
       -0.0064098365 -0.024979752 0.012256968 -0.0012434447
000340 aa b6 f9 3c 8f ca e2 3c 15 08 0b 3d 94 3f 79 bc
       0.030482609 0.027684478 0.033943255 -0.015212912
000350 ad b3 08 3d 6d 43 68 bc b2 09 a0 3c 77 7a 44 ba
       0.033374477 -0.014176232 0.019535873 -0.00074950553
000360 94 00 0a 3d 1d d6 93 bc 38 02 ca 3c 47 11 28 3c
       0.033691958 -0.018046433 0.024659261 0.0102580255
000370 62 ef af bb e9 dd b2 bc 2b 6e f3 3c bb 83 b6 3c
       -0.005369113 -0.02183433 0.029715618 0.02227961
000380 9b 54 b8 3b 3c 94 00 3d 84 ea ce 3b c5 95 7d bc
       0.00562532 0.031391367 0.0063145775 -0.015477602
000390 dd 06 0b bc 76 ba e7 3c 14 4e 00 3d 89 ff 9f bb
       -0.008485523 0.028287154 0.03132446 -0.004882757
0003a0 6d 49 0f 3d 4c 23 df 3c b4 dd e3 bc 99 d8 c2 bc
       0.034982134 0.02723851 -0.027815677 -0.023784922
0003b0 38 d1 f4 3c ad 94 d6 3c 9c a4 12 3d dd f6 a4 b9
       0.02988492 0.026193941 0.035801515 -0.00031464445
0003c0 aa 46 c1 bb 94 f9 be bc 66 80 73 bc a8 37 c5 3b
       -0.0058983164 -0.023312367 -0.014862156 0.0060185976
0003d0 85 76 00 bd 5b 3e a6 3c 9e 49 d4 bb 83 b8 02 3d
       -0.03136303 0.020293405 -0.0064785024 0.031914245
0003e0 48 2f d9 3c 95 a6 ad bc 6e c9 d4 3a 66 fc 08 3d
       0.026511803 -0.021197597 0.0016234347 0.03344383
0003f0 04 b1 1f b9 6a ea f2 bc 8f e5 bc 3b a1 2a d2 bc
       -0.00015229365 -0.029652793 0.00576467 -0.025655093

base_model.model.transformer.h.1.attn.c_attn.lora_B.weight f4 [2304, 4]
000000 00 00 00 00 00 00 00 00 00 00 00 00 00 00 00 00
       0.0 0.0 0.0 0.0
000010 00 00 00 00 00 00 00 00 00 00 00 00 00 00 00 00
       0.0 0.0 0.0 0.0
000020 00 00 00 00 00 00 00 00 00 00 00 00 00 00 00 00
       0.0 0.0 0.0 0.0
000030 00 00 00 00 00 00 00 00 00 00 00 00 00 00 00 00
       0.0 0.0 0.0 0.0
000040 00 00 00 00 00 00 00 00 00 00 00 00 00 00 00 00
       0.0 0.0 0.0 0.0
000050 00 00 00 00 00 00 00 00 00 00 00 00 00 00 00 00
       0.0 0.0 0.0 0.0
000060 00 00 00 00 00 00 00 00 00 00 00 00 00 00 00 00
       0.0 0.0 0.0 0.0
000070 00 00 00 00 00 00 00 00 00 00 00 00 00 00 00 00
       0.0 0.0 0.0 0.0
000080 00 00 00 00 00 00 00 00 00 00 00 00 00 00 00 00
       0.0 0.0 0.0 0.0
000090 00 00 00 00 00 00 00 00 00 00 00 00 00 00 00 00
       0.0 0.0 0.0 0.0
0000a0 00 00 00 00 00 00 00 00 00 00 00 00 00 00 00 00
       0.0 0.0 0.0 0.0
0000b0 00 00 00 00 00 00 00 00 00 00 00 00 00 00 00 00
       0.0 0.0 0.0 0.0
0000c0 00 00 00 00 00 00 00 00 00 00 00 00 00 00 00 00
       0.0 0.0 0.0 0.0
0000d0 00 00 00 00 00 00 00 00 00 00 00 00 00 00 00 00
       0.0 0.0 0.0 0.0
0000e0 00 00 00 00 00 00 00 00 00 00 00 00 00 00 00 00
       0.0 0.0 0.0 0.0
0000f0 00 00 00 00 00 00 00 00 00 00 00 00 00 00 00 00
       0.0 0.0 0.0 0.0
000100 00 00 00 00 00 00 00 00 00 00 00 00 00 00 00 00
       0.0 0.0 0.0 0.0
000110 00 00 00 00 00 00 00 00 00 00 00 00 00 00 00 00
       0.0 0.0 0.0 0.0
000120 00 00 00 00 00 00 00 00 00 00 00 00 00 00 00 00
       0.0 0.0 0.0 0.0
000130 00 00 00 00 00 00 00 00 00 00 00 00 00 00 00 00
       0.0 0.0 0.0 0.0
000140 00 00 00 00 00 00 00 00 00 00 00 00 00 00 00 00
       0.0 0.0 0.0 0.0
000150 00 00 00 00 00 00 00 00 00 00 00 00 00 00 00 00
       0.0 0.0 0.0 0.0
000160 00 00 00 00 00 00 00 00 00 00 00 00 00 00 00 00
       0.0 0.0 0.0 0.0
000170 00 00 00 00 00 00 00 00 00 00 00 00 00 00 00 00
       0.0 0.0 0.0 0.0
000180 00 00 00 00 00 00 00 00 00 00 00 00 00 00 00 00
       0.0 0.0 0.0 0.0
000190 00 00 00 00 00 00 00 00 00 00 00 00 00 00 00 00
       0.0 0.0 0.0 0.0
0001a0 00 00 00 00 00 00 00 00 00 00 00 00 00 00 00 00
       0.0 0.0 0.0 0.0
0001b0 00 00 00 00 00 00 00 00 00 00 00 00 00 00 00 00
       0.0 0.0 0.0 0.0
0001c0 00 00 00 00 00 00 00 00 00 00 00 00 00 00 00 00
       0.0 0.0 0.0 0.0
0001d0 00 00 00 00 00 00 00 00 00 00 00 00 00 00 00 00
       0.0 0.0 0.0 0.0
0001e0 00 00 00 00 00 00 00 00 00 00 00 00 00 00 00 00
       0.0 0.0 0.0 0.0
0001f0 00 00 00 00 00 00 00 00 00 00 00 00 00 00 00 00
       0.0 0.0 0.0 0.0
000200 00 00 00 00 00 00 00 00 00 00 00 00 00 00 00 00
       0.0 0.0 0.0 0.0
000210 00 00 00 00 00 00 00 00 00 00 00 00 00 00 00 00
       0.0 0.0 0.0 0.0
000220 00 00 00 00 00 00 00 00 00 00 00 00 00 00 00 00
       0.0 0.0 0.0 0.0
000230 00 00 00 00 00 00 00 00 00 00 00 00 00 00 00 00
       0.0 0.0 0.0 0.0
000240 00 00 00 00 00 00 00 00 00 00 00 00 00 00 00 00
       0.0 0.0 0.0 0.0
000250 00 00 00 00 00 00 00 00 00 00 00 00 00 00 00 00
       0.0 0.0 0.0 0.0
000260 00 00 00 00 00 00 00 00 00 00 00 00 00 00 00 00
       0.0 0.0 0.0 0.0
000270 00 00 00 00 00 00 00 00 00 00 00 00 00 00 00 00
       0.0 0.0 0.0 0.0
000280 00 00 00 00 00 00 00 00 00 00 00 00 00 00 00 00
       0.0 0.0 0.0 0.0
000290 00 00 00 00 00 00 00 00 00 00 00 00 00 00 00 00
       0.0 0.0 0.0 0.0
0002a0 00 00 00 00 00 00 00 00 00 00 00 00 00 00 00 00
       0.0 0.0 0.0 0.0
0002b0 00 00 00 00 00 00 00 00 00 00 00 00 00 00 00 00
       0.0 0.0 0.0 0.0
0002c0 00 00 00 00 00 00 00 00 00 00 00 00 00 00 00 00
       0.0 0.0 0.0 0.0
0002d0 00 00 00 00 00 00 00 00 00 00 00 00 00 00 00 00
       0.0 0.0 0.0 0.0
0002e0 00 00 00 00 00 00 00 00 00 00 00 00 00 00 00 00
       0.0 0.0 0.0 0.0
0002f0 00 00 00 00 00 00 00 00 00 00 00 00 00 00 00 00
       0.0 0.0 0.0 0.0
000300 00 00 00 00 00 00 00 00 00 00 00 00 00 00 00 00
       0.0 0.0 0.0 0.0
000310 00 00 00 00 00 00 00 00 00 00 00 00 00 00 00 00
       0.0 0.0 0.0 0.0
000320 00 00 00 00 00 00 00 00 00 00 00 00 00 00 00 00
       0.0 0.0 0.0 0.0
000330 00 00 00 00 00 00 00 00 00 00 00 00 00 00 00 00
       0.0 0.0 0.0 0.0
000340 00 00 00 00 00 00 00 00 00 00 00 00 00 00 00 00
       0.0 0.0 0.0 0.0
000350 00 00 00 00 00 00 00 00 00 00 00 00 00 00 00 00
       0.0 0.0 0.0 0.0
000360 00 00 00 00 00 00 00 00 00 00 00 00 00 00 00 00
       0.0 0.0 0.0 0.0
000370 00 00 00 00 00 00 00 00 00 00 00 00 00 00 00 00
       0.0 0.0 0.0 0.0
000380 00 00 00 00 00 00 00 00 00 00 00 00 00 00 00 00
       0.0 0.0 0.0 0.0
000390 00 00 00 00 00 00 00 00 00 00 00 00 00 00 00 00
       0.0 0.0 0.0 0.0
0003a0 00 00 00 00 00 00 00 00 00 00 00 00 00 00 00 00
       0.0 0.0 0.0 0.0
0003b0 00 00 00 00 00 00 00 00 00 00 00 00 00 00 00 00
       0.0 0.0 0.0 0.0
0003c0 00 00 00 00 00 00 00 00 00 00 00 00 00 00 00 00
       0.0 0.0 0.0 0.0
0003d0 00 00 00 00 00 00 00 00 00 00 00 00 00 00 00 00
       0.0 0.0 0.0 0.0
0003e0 00 00 00 00 00 00 00 00 00 00 00 00 00 00 00 00
       0.0 0.0 0.0 0.0
0003f0 00 00 00 00 00 00 00 00 00 00 00 00 00 00 00 00
       0.0 0.0 0.0 0.0

base_model.model.transformer.h.10.attn.c_attn.lora_A.weight f4 [4, 768]
000000 b3 0c 04 3d ae 9f 05 3c b2 17 39 3c 1e ae 0f 3b
       0.032238673 0.008155746 0.011297153 0.002192385
000010 51 c5 a4 bc c4 c6 ab bc 8a 6c c8 bc 3e e4 24 bb
       -0.020113619 -0.020968802 -0.024465818 -0.0025160457
000020 2b 29 5b 3c b6 90 dc ba d9 19 d9 3c ce 48 f9 3c
       0.013376514 -0.0016827795 0.026501583 0.030430224
000030 1e 23 6f bb a3 65 a0 bc 76 cc a2 3a ae 62 b0 bc
       -0.0036489437 -0.019579714 0.0012420553 -0.02153143
000040 13 38 ba bc 7e 40 5a ba 42 22 76 bc 1a 7b 00 3d
       -0.022731816 -0.000832565 -0.015022816 0.0313674
000050 93 c5 ab 3c 71 74 af bc 50 69 c9 bc 0e b7 a0 bc
       0.020968234 -0.021417828 -0.02458635 -0.019618537
000060 f0 d8 e1 bc 58 47 52 bc 75 44 69 bc 90 11 6c bb
       -0.027569264 -0.0128343925 -0.014237513 -0.003602121
000070 43 0d b2 3b 36 3f f1 bc ba 30 45 bc 23 43 a6 bc
       0.00543371 -0.029449087 -0.012035543 -0.020295685
000080 3e 6c 1f 3b fe 13 a6 3c 69 e1 ee bc 20 9b 79 3c
       0.0024325992 0.020273205 -0.029160218 0.015234739
000090 d0 bb b5 bc 1a 0a d5 bc 16 d1 0e 3d f2 08 df 3b
       -0.022184283 -0.026005793 0.03486737 0.0068064863
0000a0 a2 f6 12 bd e0 e3 66 3c b5 8d 1c bc ef 97 96 3c
       -0.03587974 0.014092416 -0.00955527 0.018382994
0000b0 c5 55 15 bc 76 1e 50 3c 21 88 cd 3b 5d 07 b6 3c
       -0.009114687 0.012702575 0.0062723313 0.022220308
0000c0 00 92 37 3b 2f 73 02 3c 0a e6 9b 3c ae 09 f2 bc
       0.0028010607 0.007962032 0.01903059 -0.029545631
0000d0 7b a7 41 bb b9 80 8e 3c c1 78 95 3b fa e5 e5 bc
       -0.002954929 0.017395364 0.004561514 -0.028063763
0000e0 f2 34 bf bb 53 19 0e 3c ec 8b 07 bc d3 43 66 3b
       -0.005835169 0.00867303 -0.008273106 0.0035135641
0000f0 30 78 ee 3b d4 b4 d8 bc 59 1e 00 3d ef 15 eb 3c
       0.007277511 -0.026453413 0.03127894 0.028696982
000100 b2 28 40 3b 74 63 12 bd 46 7b 57 3c b3 a3 1b 3c
       0.0029321131 -0.035739377 0.013151949 0.009499478
000110 5e 7d ce bc 79 22 f5 3b c2 5b aa 3c d9 74 c8 3c
       -0.025206264 0.007480916 0.020795707 0.02446978
000120 26 9a 83 bc 6a 42 00 bb e9 92 5a bc f7 8c b3 bc
       -0.016064715 -0.0019570836 -0.01334069 -0.021917803
000130 13 02 c9 bb 2a 67 d7 bc bb 02 38 3b 44 fb 73 3c
       -0.0061342805 -0.02629431 0.00280778 0.014891449
000140 79 b2 c7 3c b3 d8 de 3c 78 12 f4 bb 15 c3 b3 3c
       0.024377095 0.02720294 -0.0074484907 0.021943608
000150 06 ee d8 bc 7f 76 c4 bc 76 10 07 3d 0e 4f cd bc
       -0.026480686 -0.023982285 0.032974683 -0.02506211
000160 bb f2 97 bc e1 77 05 bd 22 fc 10 bd 55 a4 c2 3c
       -0.01854836 -0.03258503 -0.035396703 0.02376
000170 f6 3b ae 3c 65 89 f4 bc e7 02 96 bc 4d 4b 0d 3d
       0.021268826 -0.029850671 -0.01831193 0.03449564
000180 74 85 c3 bb b7 4e d4 bc 73 9c 13 bd 76 aa 0f bd
       -0.0059668366 -0.02591644 -0.036037873 -0.035074674
000190 89 e9 05 3d 85 1f 1a bc d0 93 f5 bb 98 8c 25 bc
       0.03269342 -0.009406929 -0.0074944273 -0.010104321
0001a0 ef d4 be bc 26 0d 90 3c 31 48 e8 3c 1f 47 94 3b
       -0.023294894 0.017584395 0.028354736 0.00452508
0001b0 d5 ba 21 bc 4b 58 f6 3b 6b 2b fd bc 83 8c 0e 3d
       -0.009871204 0.0075178496 -0.030904492 0.03480197
0001c0 6a e6 ae bb c6 bf f3 3c 21 43 11 3d fe a7 9a 3c
       -0.005337526 0.02975453 0.03546441 0.018878933
0001d0 7c bf f4 3c 2d c9 20 bc 18 aa db bb 93 d5 57 3a
       0.029876463 -0.009813589 -0.0067036264 0.0008233424
0001e0 96 91 91 bc f4 77 ee bc 77 d2 65 bc 86 af a3 bc
       -0.017769616 -0.029109932 -0.0140272295 -0.019981157
0001f0 97 1f b9 bc 3a 7a 96 bc 53 af d5 bc b0 8a dd 3c
       -0.022598071 -0.018368829 -0.026084578 0.02704367
000200 66 d7 8f 39 f5 e8 b8 bc 4f 7a 8e 3c e1 fc e1 bb
       0.0002743557 -0.02257202 0.017392306 -0.0068966006
000210 46 89 8a 3c a7 7b fd 3c 8f c6 06 bc 67 6a ba 3c
       0.01691116 0.030942751 -0.008226051 0.022755815
000220 0e 36 fd bc 3b 20 11 3d 04 0a 0c bd df da 7e bc
       -0.030909564 0.035431128 -0.03418924 -0.015555113
000230 ae 14 66 3c 50 0a 29 bc ed fd d6 3c df af d1 bc
       0.014043016 -0.0103174 0.026244128 -0.025596557
000240 74 6a 9d bc 05 8f 17 bb a2 a1 07 3d c1 f8 10 bd
       -0.0192158 -0.0023126018 0.03311313 -0.03539348
000250 0b fb d0 3b b5 b4 7a 3b c5 5f fe 3a 5d 1f 06 3c
       0.006377583 0.0038254682 0.0019407204 0.0081861885
000260 d4 20 fd 3c a7 56 0f 3d dd 9c ac bc cc 33 9f 3c
       0.030899443 0.034994747 -0.021070892 0.019433878
000270 64 bf ee bc bc 81 9d 3c 12 e7 06 3c 43 1d 93 3c
       -0.029143997 0.019226901 0.008233802 0.017958289
000280 26 03 d9 bc 2c d5 50 3c ed 65 20 bc 12 da 8f bb
       -0.02649076 0.012746137 -0.009789926 -0.0043900097
000290 79 2a b1 ba 89 39 f9 3c 4c 8c 07 3d 51 c6 df bb
       -0.0013516686 0.030422943 0.033092782 -0.006829061
0002a0 46 2a a6 3c bb 44 d3 bc c3 24 be bc e5 95 11 3d
       0.02028383 -0.02578961 -0.023210889 0.03554334
0002b0 99 34 35 3c bb fe 82 3c 08 8a 56 3c 16 12 e1 bc
       0.011059904 0.015990606 0.013094433 -0.027474444
0002c0 e4 7a 69 3c e9 a7 cc 3c 73 36 d3 bc c9 5e 3e bb
       0.014250491 0.02498241 -0.0257828 -0.0029048196
0002d0 21 f9 f1 bc 67 d0 de 3b 75 e2 3e bc dc ae b4 3c
       -0.02953774 0.006799746 -0.011650671 0.022056036
0002e0 31 d5 50 3b d4 eb d6 3c b4 88 85 bc ea 5a c9 3b
       0.0031865353 0.026235498 -0.016300537 0.006144871
0002f0 b3 03 f2 bc b1 da b3 3c b7 ce dc bc 39 be 1d bc
       -0.02954278 0.021954866 -0.026954038 -0.009627872
000300 93 70 23 bc ea de e8 3b fa 43 aa 3c 77 62 57 bb
       -0.00997557 0.0071066516 0.020784367 -0.0032865086
000310 72 8a fb 3c 8a 5a 09 3d 42 c2 5e 3c 40 16 cf 3c
       0.030705664 0.03353361 0.013596119 0.025279164
000320 8d 79 99 3c c4 17 84 bc c7 35 44 3c 95 04 be bc
       0.018734718 -0.016124614 0.011975712 -0.023195544
000330 7f f8 4c bc d4 3c 6d 3c bb 5e 22 3c 9d d1 30 bc
       -0.012510418 0.014479835 0.009910281 -0.010792163
000340 4b 44 d9 bc 94 c6 ea bc 70 1c 83 3c 13 ff 8e bb
       -0.026521822 -0.028659143 0.016004771 -0.0043639033
000350 81 54 82 3c 0c bb cf 3c a5 9c 99 bc 08 50 0a bd
       0.015909435 0.025357746 -0.018751452 -0.03376773
000360 51 66 10 bd c6 52 10 bc 2b 43 06 bd 39 48 ff 3c
       -0.035253827 -0.008808797 -0.0327789 0.031162368
000370 7c 6f b4 bc ce 9e ae 3c ac d0 10 3d cd c0 03 3a
       -0.022025816 0.021315958 0.035355255 0.0005025983
000380 35 eb 6f bc 51 7f c1 bc 8c 5e f7 bc ab 45 89 bc
       -0.01464348 -0.02362028 -0.03019645 -0.016756853
000390 a7 cc d5 3c e6 d6 de 3b 60 58 e8 bc 15 43 ce 3c
       0.026098562 0.0068005202 -0.028362453 0.025178472
0003a0 de 0f 53 3c 5e e8 e8 3c 50 31 9d 3a af 85 95 3c
       0.012882201 0.028431114 0.0011992846 0.018252222
0003b0 87 7f e9 bc e0 5f 0f bd f6 45 58 bc af ae ee 3c
       -0.028503193 -0.035003543 -0.013200274 0.02913603
0003c0 4e bd 85 ba e8 ef fd 39 c8 dc ee bc 43 24 9e bc
       -0.0010203512 0.00048434664 -0.029158011 -0.0193044
0003d0 2e c5 bb bc 7a 20 fe bc b6 99 72 3c f3 76 ed 3c
       -0.022921171 -0.031021345 0.014807155 0.028987383
0003e0 be 2a e2 3c bd 3d 63 bc 8f 47 90 3c cd 00 d5 3c
       0.027608272 -0.0138697 0.017612247 0.026001358
0003f0 7f 99 5c 3c 3c e2 1f 3c a9 e1 a3 bc e3 0e 99 3a
       0.013464331 0.009758528 -0.020005064 0.001167741

base_model.model.transformer.h.10.attn.c_attn.lora_B.weight f4 [2304, 4]
000000 00 00 00 00 00 00 00 00 00 00 00 00 00 00 00 00
       0.0 0.0 0.0 0.0
000010 00 00 00 00 00 00 00 00 00 00 00 00 00 00 00 00
       0.0 0.0 0.0 0.0
000020 00 00 00 00 00 00 00 00 00 00 00 00 00 00 00 00
       0.0 0.0 0.0 0.0
000030 00 00 00 00 00 00 00 00 00 00 00 00 00 00 00 00
       0.0 0.0 0.0 0.0
000040 00 00 00 00 00 00 00 00 00 00 00 00 00 00 00 00
       0.0 0.0 0.0 0.0
000050 00 00 00 00 00 00 00 00 00 00 00 00 00 00 00 00
       0.0 0.0 0.0 0.0
000060 00 00 00 00 00 00 00 00 00 00 00 00 00 00 00 00
       0.0 0.0 0.0 0.0
000070 00 00 00 00 00 00 00 00 00 00 00 00 00 00 00 00
       0.0 0.0 0.0 0.0
000080 00 00 00 00 00 00 00 00 00 00 00 00 00 00 00 00
       0.0 0.0 0.0 0.0
000090 00 00 00 00 00 00 00 00 00 00 00 00 00 00 00 00
       0.0 0.0 0.0 0.0
0000a0 00 00 00 00 00 00 00 00 00 00 00 00 00 00 00 00
       0.0 0.0 0.0 0.0
0000b0 00 00 00 00 00 00 00 00 00 00 00 00 00 00 00 00
       0.0 0.0 0.0 0.0
0000c0 00 00 00 00 00 00 00 00 00 00 00 00 00 00 00 00
       0.0 0.0 0.0 0.0
0000d0 00 00 00 00 00 00 00 00 00 00 00 00 00 00 00 00
       0.0 0.0 0.0 0.0
0000e0 00 00 00 00 00 00 00 00 00 00 00 00 00 00 00 00
       0.0 0.0 0.0 0.0
0000f0 00 00 00 00 00 00 00 00 00 00 00 00 00 00 00 00
       0.0 0.0 0.0 0.0
000100 00 00 00 00 00 00 00 00 00 00 00 00 00 00 00 00
       0.0 0.0 0.0 0.0
000110 00 00 00 00 00 00 00 00 00 00 00 00 00 00 00 00
       0.0 0.0 0.0 0.0
000120 00 00 00 00 00 00 00 00 00 00 00 00 00 00 00 00
       0.0 0.0 0.0 0.0
000130 00 00 00 00 00 00 00 00 00 00 00 00 00 00 00 00
       0.0 0.0 0.0 0.0
000140 00 00 00 00 00 00 00 00 00 00 00 00 00 00 00 00
       0.0 0.0 0.0 0.0
000150 00 00 00 00 00 00 00 00 00 00 00 00 00 00 00 00
       0.0 0.0 0.0 0.0
000160 00 00 00 00 00 00 00 00 00 00 00 00 00 00 00 00
       0.0 0.0 0.0 0.0
000170 00 00 00 00 00 00 00 00 00 00 00 00 00 00 00 00
       0.0 0.0 0.0 0.0
000180 00 00 00 00 00 00 00 00 00 00 00 00 00 00 00 00
       0.0 0.0 0.0 0.0
000190 00 00 00 00 00 00 00 00 00 00 00 00 00 00 00 00
       0.0 0.0 0.0 0.0
0001a0 00 00 00 00 00 00 00 00 00 00 00 00 00 00 00 00
       0.0 0.0 0.0 0.0
0001b0 00 00 00 00 00 00 00 00 00 00 00 00 00 00 00 00
       0.0 0.0 0.0 0.0
0001c0 00 00 00 00 00 00 00 00 00 00 00 00 00 00 00 00
       0.0 0.0 0.0 0.0
0001d0 00 00 00 00 00 00 00 00 00 00 00 00 00 00 00 00
       0.0 0.0 0.0 0.0
0001e0 00 00 00 00 00 00 00 00 00 00 00 00 00 00 00 00
       0.0 0.0 0.0 0.0
0001f0 00 00 00 00 00 00 00 00 00 00 00 00 00 00 00 00
       0.0 0.0 0.0 0.0
000200 00 00 00 00 00 00 00 00 00 00 00 00 00 00 00 00
       0.0 0.0 0.0 0.0
000210 00 00 00 00 00 00 00 00 00 00 00 00 00 00 00 00
       0.0 0.0 0.0 0.0
000220 00 00 00 00 00 00 00 00 00 00 00 00 00 00 00 00
       0.0 0.0 0.0 0.0
000230 00 00 00 00 00 00 00 00 00 00 00 00 00 00 00 00
       0.0 0.0 0.0 0.0
000240 00 00 00 00 00 00 00 00 00 00 00 00 00 00 00 00
       0.0 0.0 0.0 0.0
000250 00 00 00 00 00 00 00 00 00 00 00 00 00 00 00 00
       0.0 0.0 0.0 0.0
000260 00 00 00 00 00 00 00 00 00 00 00 00 00 00 00 00
       0.0 0.0 0.0 0.0
000270 00 00 00 00 00 00 00 00 00 00 00 00 00 00 00 00
       0.0 0.0 0.0 0.0
000280 00 00 00 00 00 00 00 00 00 00 00 00 00 00 00 00
       0.0 0.0 0.0 0.0
000290 00 00 00 00 00 00 00 00 00 00 00 00 00 00 00 00
       0.0 0.0 0.0 0.0
0002a0 00 00 00 00 00 00 00 00 00 00 00 00 00 00 00 00
       0.0 0.0 0.0 0.0
0002b0 00 00 00 00 00 00 00 00 00 00 00 00 00 00 00 00
       0.0 0.0 0.0 0.0
0002c0 00 00 00 00 00 00 00 00 00 00 00 00 00 00 00 00
       0.0 0.0 0.0 0.0
0002d0 00 00 00 00 00 00 00 00 00 00 00 00 00 00 00 00
       0.0 0.0 0.0 0.0
0002e0 00 00 00 00 00 00 00 00 00 00 00 00 00 00 00 00
       0.0 0.0 0.0 0.0
0002f0 00 00 00 00 00 00 00 00 00 00 00 00 00 00 00 00
       0.0 0.0 0.0 0.0
000300 00 00 00 00 00 00 00 00 00 00 00 00 00 00 00 00
       0.0 0.0 0.0 0.0
000310 00 00 00 00 00 00 00 00 00 00 00 00 00 00 00 00
       0.0 0.0 0.0 0.0
000320 00 00 00 00 00 00 00 00 00 00 00 00 00 00 00 00
       0.0 0.0 0.0 0.0
000330 00 00 00 00 00 00 00 00 00 00 00 00 00 00 00 00
       0.0 0.0 0.0 0.0
000340 00 00 00 00 00 00 00 00 00 00 00 00 00 00 00 00
       0.0 0.0 0.0 0.0
000350 00 00 00 00 00 00 00 00 00 00 00 00 00 00 00 00
       0.0 0.0 0.0 0.0
000360 00 00 00 00 00 00 00 00 00 00 00 00 00 00 00 00
       0.0 0.0 0.0 0.0
000370 00 00 00 00 00 00 00 00 00 00 00 00 00 00 00 00
       0.0 0.0 0.0 0.0
000380 00 00 00 00 00 00 00 00 00 00 00 00 00 00 00 00
       0.0 0.0 0.0 0.0
000390 00 00 00 00 00 00 00 00 00 00 00 00 00 00 00 00
       0.0 0.0 0.0 0.0
0003a0 00 00 00 00 00 00 00 00 00 00 00 00 00 00 00 00
       0.0 0.0 0.0 0.0
0003b0 00 00 00 00 00 00 00 00 00 00 00 00 00 00 00 00
       0.0 0.0 0.0 0.0
0003c0 00 00 00 00 00 00 00 00 00 00 00 00 00 00 00 00
       0.0 0.0 0.0 0.0
0003d0 00 00 00 00 00 00 00 00 00 00 00 00 00 00 00 00
       0.0 0.0 0.0 0.0
0003e0 00 00 00 00 00 00 00 00 00 00 00 00 00 00 00 00
       0.0 0.0 0.0 0.0
0003f0 00 00 00 00 00 00 00 00 00 00 00 00 00 00 00 00
       0.0 0.0 0.0 0.0

base_model.model.transformer.h.11.attn.c_attn.lora_A.weight f4 [4, 768]
000000 89 d8 29 bc 5d b4 75 3b 50 d9 29 3c f1 27 d2 bc
       -0.010366567 0.0037491538 0.010366753 -0.025653811
000010 b4 e1 df 3a e2 3f f7 3c 67 19 7a 3c 3b e0 02 bc
       0.0017080815 0.030181829 0.015264845 -0.007988031
000020 ea 79 0e 3d 03 68 f9 bb 2b 94 53 3c e2 e2 cd ba
       0.034784235 -0.007611276 0.012913744 -0.0015707875
000030 35 82 87 3c 88 19 e5 3c 28 1d cc 3b 5e 41 4d bc
       0.01654158 0.027966276 0.0062290616 -0.012527792
000040 ad 4c ad bc f6 a3 10 3d 39 9a f8 bc 53 7d 08 bd
       -0.021154726 0.035312615 -0.030346977 -0.033322643
000050 fc 7c ee 3b de 1b 40 3c 7b de 0e 3d ec 97 88 bc
       0.007278083 0.011725394 0.034880143 -0.016674004
000060 f4 d9 4e 3c a4 ea cd bb c7 c2 59 bb f0 b2 2c bc
       0.012625206 -0.006284075 -0.0033227669 -0.010540709
000070 2c eb a3 3c 49 f2 93 bb 1d a7 22 bc 1e 2a bb bb
       0.0200096 -0.0045149666 -0.009927538 -0.005711808
000080 e0 0d 32 bb 84 00 59 bc f3 ed 06 bd 36 cb cd bc
       -0.0027168915 -0.013244752 -0.03294177 -0.025121313
000090 42 db e6 3c 8d c8 82 bc 64 4d 3b bc a4 26 85 bc
       0.028180722 -0.01596477 -0.011432026 -0.016253777
0000a0 37 00 d2 3c 51 8c 99 bb 4c f8 81 3b 8f 14 d7 3c
       0.025634868 -0.0046859165 0.003966367 0.02625492
0000b0 d9 2a 93 3a 0f 69 cb 3c 1c e0 e3 3c 72 e2 87 3c
       0.001122798 0.02483037 0.027816825 0.01658747
0000c0 cc a2 64 bc 84 a7 01 3d b5 1e 7c bb b0 50 9a 3b
       -0.013954829 0.031653896 -0.0038470451 0.0047093257
0000d0 0a 96 7e bb 76 01 4b bb b0 d5 eb bc ae e2 16 bc
       -0.0038846754 -0.0030976213 -0.028788418 -0.009209318
0000e0 a2 9e c8 3c db 33 03 3c cc 33 63 bc ac d8 91 bc
       0.024489705 0.008007969 -0.01386733 -0.017803513
0000f0 49 e9 e3 3c cd b1 9d bc f6 35 d0 bc bd b3 b3 bc
       0.0278212 -0.019249821 -0.025416356 -0.021936292
000100 1f 99 bb bc 6c ce 7c 3c 6a df a2 bc 6f f9 06 bd
       -0.022900162 0.015430074 -0.019881923 -0.032952722
000110 33 22 fb 3c d4 26 9b bc 80 41 3d 3b 0a 54 fd 3c
       0.030655956 -0.018939413 0.0028878152 0.030923862
000120 0c 70 c3 bc 5b af e8 bb a5 98 87 bc d9 5b 90 bc
       -0.023857139 -0.007100982 -0.016552279 -0.017621921
000130 fb d3 e5 bc a1 0b ef bc 22 50 00 3d bd 48 cd 3c
       -0.028055182 -0.02918035 0.03132642 0.025059098
000140 89 ec 67 bc b8 de 3b bb 83 e8 b2 bc 8a 8c 8b 3c
       -0.0141555155 -0.0028666686 -0.021839386 0.017034788
000150 14 36 08 3d 37 5b b5 bc 61 3a 12 3d c9 2a 13 bd
       0.033254698 -0.022138221 0.035700206 -0.035929475
000160 da 49 df 3c d0 ee ab bc 18 14 0e bc 1a 79 08 3d
       0.027256895 -0.020987898 -0.008671783 0.033318616
000170 a1 37 d1 b8 42 3a 04 3d 1a c9 f3 3c a9 3a c2 3c
       -9.976258e-05 0.03228212 0.029758979 0.023709612
000180 1c 6f 92 3c 6f 09 de bb 27 cc c4 3c 0e 46 ba 3c
       0.017875247 -0.006776027 0.024023129 0.022738483
000190 e0 37 17 bc 16 3f cb 3c cf 99 e2 bb 0a 30 c0 3c
       -0.00922963 0.024810355 -0.006915308 0.023460407
0001a0 73 a1 23 bc b5 58 a9 3c 1f 62 a4 bb eb db b2 3b
       -0.009987223 0.020672182 -0.0050165798 0.005458345
0001b0 89 c9 df bc 89 91 54 3c 0a 83 0d bd 11 6b 83 3b
       -0.02731778 0.012974151 -0.034548797 0.004010566
0001c0 54 a3 3f 3c e2 a1 d8 3c b9 77 91 3c 56 61 07 3d
       0.011696655 0.02644438 0.017757284 0.03305181
0001d0 dd 4e ff 3b 14 17 8f 3c 95 bc f8 3c c0 9f c4 3c
       0.0077913837 0.01746706 0.03036336 0.024001956
0001e0 92 0a d4 3c 48 10 d4 3b d4 5a 1d bc 0f d8 cd 3a
       0.025883947 0.0064716674 -0.009604175 0.0015704649
0001f0 f1 31 67 3c d7 f9 72 3b 1a 50 d1 bc 98 17 c3 bc
       0.014111028 0.0037075186 -0.02555089 -0.023814961
000200 5c 62 76 39 47 47 ce bc 25 d6 01 bd 1a 58 b3 bc
       0.0002349703 -0.025180472 -0.031698365 -0.021892596
000210 ce 3c f4 bc 1d ae b8 3c 46 bb 10 3c d6 fb ea bc
       -0.02981415 0.022543961 0.008833712 -0.028684538
000220 13 85 c4 bc 19 8e 48 bc 5b 68 0b bd fd 48 d3 bb
       -0.023989236 -0.01224091 -0.034035068 -0.00644791
000230 86 06 02 bd 4b 9b c1 bc c6 54 ce 3c e4 1a e1 bc
       -0.031744502 -0.02363362 0.025186908 -0.027478643
000240 8f d5 a7 bc 18 60 19 bc c9 f5 df bc 3b e5 12 3d
       -0.020487575 -0.009361289 -0.02733888 0.035863142
000250 98 c6 69 bc 00 f0 f3 bc fb a0 8a 3c c8 88 f3 3c
       -0.01426854 -0.029777527 0.016922465 0.029728308
000260 d2 dd 41 bb 2f ef d2 bc c9 0a 94 3c 27 b2 b5 3b
       -0.0029581678 -0.025748817 0.018071549 0.005544919
000270 87 cc 65 3a 4f 41 e0 bc fc a3 10 bd dc 36 c2 bc
       0.00087661337 -0.027374892 -0.035312638 -0.0237078
000280 7b dc e0 bc 77 25 ee bc 90 af d1 bc 81 a0 66 bc
       -0.027448883 -0.029070599 -0.02559641 -0.014076353
000290 ba 11 b0 bc 43 f1 da 3c 09 be 79 bb 84 b5 26 bb
       -0.021492828 0.02672637 -0.0038107655 -0.0025437782
0002a0 3d 91 60 3c c3 44 ff bc a9 d2 06 bd 01 71 dd 3c
       0.0137065025 -0.031160718 -0.032915745 0.027031424
0002b0 77 8d 43 3c 33 4b 88 bc 76 0f e1 3c 54 40 88 3a
       0.011935583 -0.01663742 0.027473193 0.0010395148
0002c0 dd 92 33 bb 1d 61 8e 3c 38 8e c1 3a 81 d1 ae 3c
       -0.002740077 0.017380292 0.0014767116 0.021340134
0002d0 f2 42 02 3d 6b c3 dc bc de bd c0 3b 2f 2e f9 3c
       0.031802125 -0.026948651 0.005882009 0.03041753
0002e0 7b b1 d6 bc a7 6f 24 3c ff e9 a1 3c 74 80 28 bc
       -0.026207676 0.010036386 0.019764898 -0.010284532
0002f0 47 90 44 bc fd b3 a5 bc af ab 29 bc c1 00 ad bb
       -0.011997289 -0.020227427 -0.010355874 -0.005279631
000300 97 6e a7 3c 5f 34 eb 3c a4 96 52 bc f8 fa 06 3d
       0.020438476 0.028711496 -0.012853298 0.032954186
000310 c4 ce fe 3a 08 cb 00 bc c8 1f b1 bc 79 82 f2 b9
       0.0019440283 -0.007860906 -0.0216216 -0.00046255047
000320 5b f0 c4 3b 4b 25 f0 bc 8b 57 c0 3c 28 54 3c bc
       0.006010098 -0.029314658 0.023479244 -0.011494674
000330 47 86 04 3d 3f d4 5e bc 68 7b e3 bc f6 08 11 3b
       0.03235462 -0.013600408 -0.027768806 0.0022130585
000340 61 e5 55 bc 36 ff aa bc 06 e5 06 bd a7 ff 01 bd
       -0.0130551765 -0.020873647 -0.032933258 -0.03173795
000350 22 6f b5 bc 92 71 77 3b c5 f0 95 3b 69 5c c5 bc
       -0.022147719 0.0037756902 0.004575821 -0.024091916
000360 bf 45 05 bd 9e 2f 6a 3c 18 1d b4 3c c6 e8 90 3b
       -0.03253722 0.014293579 0.02198653 0.00442228
000370 d0 57 a4 bc 89 a9 a6 bb dd 5a 0d 3d da cc 16 3c
       -0.020061404 -0.005086128 0.034510482 0.009204114
000380 5d 4f 5e bc da 59 02 3c 2b ae 6e 3c a1 ce 0b bd
       -0.013568726 0.007955993 0.014567892 -0.034132604
000390 69 9d 74 3c 89 77 ab bc 23 b6 02 bd c9 7e 04 bc
       0.014930108 -0.020931022 -0.03191198 -0.008086869
0003a0 45 c2 59 bb 39 c6 04 3d d8 a5 96 bc 21 85 e0 3c
       -0.0033227366 0.032415602 -0.018389627 0.02740723
0003b0 88 1d 13 3d 72 fa 4c 3c f6 34 94 3c 46 3f a5 bc
       0.035916835 0.012510883 0.01809166 -0.020171773
0003c0 a7 60 10 bd c2 3c 9b bc 8a 6b 54 bc 86 2a 16 bc
       -0.035248425 -0.01894987 -0.012965092 -0.009165412
0003d0 f1 f4 f0 3c 26 82 a7 bc e2 9f 5b 3c 39 ec 11 bc
       0.029413672 -0.020447802 0.013404818 -0.0089064175
0003e0 12 42 a2 bc a3 67 66 3c f5 19 e8 3c 51 e0 c8 bc
       -0.019806895 0.014062795 0.02833269 -0.024521025
0003f0 c5 83 ae 3c f2 08 78 bc 62 bd 00 3d f7 48 4b 3c
       0.021303067 -0.0151388515 0.03143061 0.012407533

base_model.model.transformer.h.11.attn.c_attn.lora_B.weight f4 [2304, 4]
000000 00 00 00 00 00 00 00 00 00 00 00 00 00 00 00 00
       0.0 0.0 0.0 0.0
000010 00 00 00 00 00 00 00 00 00 00 00 00 00 00 00 00
       0.0 0.0 0.0 0.0
000020 00 00 00 00 00 00 00 00 00 00 00 00 00 00 00 00
       0.0 0.0 0.0 0.0
000030 00 00 00 00 00 00 00 00 00 00 00 00 00 00 00 00
       0.0 0.0 0.0 0.0
000040 00 00 00 00 00 00 00 00 00 00 00 00 00 00 00 00
       0.0 0.0 0.0 0.0
000050 00 00 00 00 00 00 00 00 00 00 00 00 00 00 00 00
       0.0 0.0 0.0 0.0
000060 00 00 00 00 00 00 00 00 00 00 00 00 00 00 00 00
       0.0 0.0 0.0 0.0
000070 00 00 00 00 00 00 00 00 00 00 00 00 00 00 00 00
       0.0 0.0 0.0 0.0
000080 00 00 00 00 00 00 00 00 00 00 00 00 00 00 00 00
       0.0 0.0 0.0 0.0
000090 00 00 00 00 00 00 00 00 00 00 00 00 00 00 00 00
       0.0 0.0 0.0 0.0
0000a0 00 00 00 00 00 00 00 00 00 00 00 00 00 00 00 00
       0.0 0.0 0.0 0.0
0000b0 00 00 00 00 00 00 00 00 00 00 00 00 00 00 00 00
       0.0 0.0 0.0 0.0
0000c0 00 00 00 00 00 00 00 00 00 00 00 00 00 00 00 00
       0.0 0.0 0.0 0.0
0000d0 00 00 00 00 00 00 00 00 00 00 00 00 00 00 00 00
       0.0 0.0 0.0 0.0
0000e0 00 00 00 00 00 00 00 00 00 00 00 00 00 00 00 00
       0.0 0.0 0.0 0.0
0000f0 00 00 00 00 00 00 00 00 00 00 00 00 00 00 00 00
       0.0 0.0 0.0 0.0
000100 00 00 00 00 00 00 00 00 00 00 00 00 00 00 00 00
       0.0 0.0 0.0 0.0
000110 00 00 00 00 00 00 00 00 00 00 00 00 00 00 00 00
       0.0 0.0 0.0 0.0
000120 00 00 00 00 00 00 00 00 00 00 00 00 00 00 00 00
       0.0 0.0 0.0 0.0
000130 00 00 00 00 00 00 00 00 00 00 00 00 00 00 00 00
       0.0 0.0 0.0 0.0
000140 00 00 00 00 00 00 00 00 00 00 00 00 00 00 00 00
       0.0 0.0 0.0 0.0
000150 00 00 00 00 00 00 00 00 00 00 00 00 00 00 00 00
       0.0 0.0 0.0 0.0
000160 00 00 00 00 00 00 00 00 00 00 00 00 00 00 00 00
       0.0 0.0 0.0 0.0
000170 00 00 00 00 00 00 00 00 00 00 00 00 00 00 00 00
       0.0 0.0 0.0 0.0
000180 00 00 00 00 00 00 00 00 00 00 00 00 00 00 00 00
       0.0 0.0 0.0 0.0
000190 00 00 00 00 00 00 00 00 00 00 00 00 00 00 00 00
       0.0 0.0 0.0 0.0
0001a0 00 00 00 00 00 00 00 00 00 00 00 00 00 00 00 00
       0.0 0.0 0.0 0.0
0001b0 00 00 00 00 00 00 00 00 00 00 00 00 00 00 00 00
       0.0 0.0 0.0 0.0
0001c0 00 00 00 00 00 00 00 00 00 00 00 00 00 00 00 00
       0.0 0.0 0.0 0.0
0001d0 00 00 00 00 00 00 00 00 00 00 00 00 00 00 00 00
       0.0 0.0 0.0 0.0
0001e0 00 00 00 00 00 00 00 00 00 00 00 00 00 00 00 00
       0.0 0.0 0.0 0.0
0001f0 00 00 00 00 00 00 00 00 00 00 00 00 00 00 00 00
       0.0 0.0 0.0 0.0
000200 00 00 00 00 00 00 00 00 00 00 00 00 00 00 00 00
       0.0 0.0 0.0 0.0
000210 00 00 00 00 00 00 00 00 00 00 00 00 00 00 00 00
       0.0 0.0 0.0 0.0
000220 00 00 00 00 00 00 00 00 00 00 00 00 00 00 00 00
       0.0 0.0 0.0 0.0
000230 00 00 00 00 00 00 00 00 00 00 00 00 00 00 00 00
       0.0 0.0 0.0 0.0
000240 00 00 00 00 00 00 00 00 00 00 00 00 00 00 00 00
       0.0 0.0 0.0 0.0
000250 00 00 00 00 00 00 00 00 00 00 00 00 00 00 00 00
       0.0 0.0 0.0 0.0
000260 00 00 00 00 00 00 00 00 00 00 00 00 00 00 00 00
       0.0 0.0 0.0 0.0
000270 00 00 00 00 00 00 00 00 00 00 00 00 00 00 00 00
       0.0 0.0 0.0 0.0
000280 00 00 00 00 00 00 00 00 00 00 00 00 00 00 00 00
       0.0 0.0 0.0 0.0
000290 00 00 00 00 00 00 00 00 00 00 00 00 00 00 00 00
       0.0 0.0 0.0 0.0
0002a0 00 00 00 00 00 00 00 00 00 00 00 00 00 00 00 00
       0.0 0.0 0.0 0.0
0002b0 00 00 00 00 00 00 00 00 00 00 00 00 00 00 00 00
       0.0 0.0 0.0 0.0
0002c0 00 00 00 00 00 00 00 00 00 00 00 00 00 00 00 00
       0.0 0.0 0.0 0.0
0002d0 00 00 00 00 00 00 00 00 00 00 00 00 00 00 00 00
       0.0 0.0 0.0 0.0
0002e0 00 00 00 00 00 00 00 00 00 00 00 00 00 00 00 00
       0.0 0.0 0.0 0.0
0002f0 00 00 00 00 00 00 00 00 00 00 00 00 00 00 00 00
       0.0 0.0 0.0 0.0
000300 00 00 00 00 00 00 00 00 00 00 00 00 00 00 00 00
       0.0 0.0 0.0 0.0
000310 00 00 00 00 00 00 00 00 00 00 00 00 00 00 00 00
       0.0 0.0 0.0 0.0
000320 00 00 00 00 00 00 00 00 00 00 00 00 00 00 00 00
       0.0 0.0 0.0 0.0
000330 00 00 00 00 00 00 00 00 00 00 00 00 00 00 00 00
       0.0 0.0 0.0 0.0
000340 00 00 00 00 00 00 00 00 00 00 00 00 00 00 00 00
       0.0 0.0 0.0 0.0
000350 00 00 00 00 00 00 00 00 00 00 00 00 00 00 00 00
       0.0 0.0 0.0 0.0
000360 00 00 00 00 00 00 00 00 00 00 00 00 00 00 00 00
       0.0 0.0 0.0 0.0
000370 00 00 00 00 00 00 00 00 00 00 00 00 00 00 00 00
       0.0 0.0 0.0 0.0
000380 00 00 00 00 00 00 00 00 00 00 00 00 00 00 00 00
       0.0 0.0 0.0 0.0
000390 00 00 00 00 00 00 00 00 00 00 00 00 00 00 00 00
       0.0 0.0 0.0 0.0
0003a0 00 00 00 00 00 00 00 00 00 00 00 00 00 00 00 00
       0.0 0.0 0.0 0.0
0003b0 00 00 00 00 00 00 00 00 00 00 00 00 00 00 00 00
       0.0 0.0 0.0 0.0
0003c0 00 00 00 00 00 00 00 00 00 00 00 00 00 00 00 00
       0.0 0.0 0.0 0.0
0003d0 00 00 00 00 00 00 00 00 00 00 00 00 00 00 00 00
       0.0 0.0 0.0 0.0
0003e0 00 00 00 00 00 00 00 00 00 00 00 00 00 00 00 00
       0.0 0.0 0.0 0.0
0003f0 00 00 00 00 00 00 00 00 00 00 00 00 00 00 00 00
       0.0 0.0 0.0 0.0
